trained_models/learnt_optimizer.pt (torch, 362510 bytes, 24 tensors)

x0 f4 [1, 3]
-0.0925055 0.15000804 -0.14509772
00000000: 8673 bdbd b59b 193e 7f94 14be

X f4 [9, 9]
-0.07526711 0.13335845 -0.11539829 -0.05480211 -0.018849783 -0.10020218 -0.0076090824 -0.1133843
0.07952966 -0.0068650236 0.108982 -0.08422646 -0.008679629 -0.15909697 0.06274908 -0.045672316
-0.019224983 0.008927744 -0.0215689 0.117648184 -0.10317803 -0.046441633 -0.12249432 0.024543885
-0.029039413 -0.023661839 0.034986757 0.07554737 -0.15856944 0.12533487 0.019811645 0.082805425
0.052035734 0.05306789 0.079463445 -0.016308406 -0.038311426 0.1252757 -0.094742656 0.010073646
-0.14940691 0.019958077 -0.055615775 -0.017772539 0.05873501 -0.09081231 0.14686757 -0.11532555
-0.033182517 -0.07517713 -0.0662188 -0.06423726 -0.06925751 -0.0025910446 0.0044192155 0.051658574
-0.078669116 0.061357424 0.02647053 0.023119777 0.05004838 0.03011961 0.052026015 -0.0324117
0.008839653 0.015656987 -0.067075044 0.07125866 -0.095653795 -0.015276985 -0.10024477 -0.0106872395
0.049491405 -0.06835118 0.030573048 0.074684426 -0.012898378 0.046133164 -0.00164795 0.08887133
-0.048713483
00000000: a425 9abd 1e8f 083e f055 ecbd 2d78 60bd
00000010: dc6a 9abc cd36 cdbd 9c55 f9bb 0736 e8bd
00000020: 72e0 a23d fef3 e0bb f431 df3d ec7e acbd
00000030: 0135 0ebc 51ea 22be 9782 803d e512 3bbd
00000040: b67d 9dbc ac45 123c 43b1 b0bc 88f1 f03d
00000050: 014f d3bd 9539 3ebd 4dde fabd 4210 c93c
00000060: 10e4 edbc 79d6 c1bc 464e 0f3d 94b8 9a3d
00000070: 0760 22be c957 003e 084c a23c e495 a93d
00000080: 6c23 553d b75d 593d bbbd a23d 3599 85bc
00000090: 71ec 1cbd 4648 003e 7008 c2bd ef0b 253c
000000a0: 20fe 18be 1f7f a33c 5ecd 63bd b797 91bc
000000b0: 1f94 703d cefb b9bd 7464 163e cd2f ecbd
000000c0: 64ea 07bd 78f6 99bd b99d 87bd d38e 83bd
000000d0: e2d6 8dbd 84ce 29bb 11cf 903b f197 533d
000000e0: 461d a1bd ec51 7b3d bad8 d83c b065 bd3c
000000f0: 88ff 4c3d 66bd f63c 3b19 553d 21c2 04bd
00000100: 31d4 103c 1543 803c a45e 89bd 0ff0 913d
00000110: 23e6 c3bd 524c 7abc 214d cdbd 8819 2fbc
00000120: 80b7 4a3d b4fb 8bbd 5474 fa3c 26f4 983d
00000130: b853 53bc 21f6 3c3d 0700 d8ba 2c02 b63d
00000140: ca87 47bd

Y f4 [3, 3]
-0.011054456 -0.11629733 -0.10762251 0.09552371 0.015415226 -0.041002303 0.08597133 0.04082027
-0.018954689
00000000: c01d 35bc 4b2d eebd 3169 dcbd efa1 c33d
00000010: 2590 7c3c 08f2 27bd bd11 b03d 2833 273d
00000020: dd46 9bbc

x3 f4 [28, 28]
-0.032262538 -0.04724197 -0.030664919 0.115214676 -0.004941386 0.0077958214 0.054335758 0.006760126
0.040713325 0.118193865 0.016285231 0.08035057 -0.07337894 0.04919861 0.03552492 0.1178084
-0.01914344 -0.010478603 -0.0432131 -0.06845455 -0.028355096 -0.08634593 -0.066125 0.08671264
0.0128415115 0.14912596 0.07271914 0.01093983 -0.064263925 -0.12116321 -0.005981347 0.045320693
0.035236683 0.0011560513 0.0045039314 0.055384237 0.05307638 0.012923099 -0.06952032 -0.044921305
-0.009346439 -0.0035641533 0.01695229 0.038569264 -0.066489875 -0.038030718 0.00867203 0.086630136
0.045129973 -0.17962554 -0.065706536 0.14698511 0.056654256 -0.09051527 -0.16779403 -0.024523124
0.15882953 0.13593097 -0.06992239 -0.039785832 -0.044511974 0.015235111 -0.07261382 -0.038273465
-0.015589507 -0.023410065 -0.12520647 -0.10431569 0.13224426 -0.037273794 0.0014341933 0.05848502
-0.013410885 -0.0054456177 0.015193386 0.00930775 -0.029285032 -0.041594986 0.052600466 -0.10595434
0.064720295 0.09648296 -0.09497231 0.1292039 -0.07361725 0.059660643 0.02084672 -0.050803162
-0.033889048 0.112649076 0.08911483 0.06722573 -0.07020072 0.17079404 -0.04347848 -0.09296729
0.0330519 0.10313785 0.07550872 -0.11067038 0.04924719 -0.058652155 -0.063629396 -0.15421745
0.014613909 -0.09300868 -0.02617634 0.059686683 0.0092079155 -0.110716455 0.030037647 0.032743152
-0.093740694 0.00084969884 -0.04142077 0.061087836 -0.08847104 -0.105765454 -0.1184397 -0.07381045
-0.026946623 -0.0324088 0.08410335 -0.0069692554 0.07451786 -0.034941208 -0.0901201 -0.010591081
-0.11256411 -0.00721515 -0.1549132 0.039485488 -0.049311563 0.029214727 -0.022816023 -0.09472789
0.022430334 -0.08944233 -0.004925572 0.07196509 0.0637717 -0.012155197 -0.061972897 0.11317122
0.032530613 0.05847995 0.031569153 0.15226209 0.096313775 -0.020409795 0.09294109 0.06348275
0.08779179 -0.028887173 -0.041081563 0.06533978 -0.08408966 0.03997594 0.011316746 -0.010608034
0.0993711 -0.10475112 -0.06734152 0.08778052 -0.04989702 0.027510025 -0.0073383707 -0.1270973
-0.081350654 0.0064545944 0.10685527 0.075142466 -0.09214602 -0.019779695 -0.048701268 0.025729083
0.010814361 0.08576261 0.014659364 0.04625012 0.059221074 0.11332392 0.055169865 0.026819585
0.13256602 0.021730833 -0.044735786 0.038773395 -0.17205194 -0.016065773 0.025395218 0.05680723
-0.08318565 0.0066431086 -0.040973447 0.0772058 -0.06371567 -0.058937494 -0.0022864782 0.06693047
-0.11257444 -0.11241205 -0.095074795 -0.11199096 -0.093618646 -0.041444432 -0.01537555 -0.03776821
0.10437673 0.0053568706 0.032259487 -0.052290462 0.059057944 -0.13690758 -0.16595164 0.062490035
0.037521683 -0.016805721 0.08774103 -0.0422199 0.008570222 -0.119507425 -0.0014568645 0.002292581
-0.0026892838 0.033491846 0.0883035 0.11868285 0.09400781 0.10299726 0.055096686 0.051036842
0.06778736 0.05124328 -0.042541184 0.07539954 0.017509611 0.083696455 0.06791836 0.11972108
-0.10376197 -0.018919958 -0.060646772 -0.16304967 0.025697095 0.029134719 -0.0368169 0.021791348
0.074176334 0.026723837 -0.111853875 0.1754975 -0.043763176 0.032827705 -0.0002211384 -0.14745909
00000000: b925 04bd cc80 41bd ff34 fbbc acf5 eb3d
00000010: 5aeb a1bb 1774 ff3b 2c8f 5e3d 0c84 dd3b
00000020: 04c3 263d a00f f23d 9b68 853c d78e a43d
00000030: b347 96bd 7b84 493d 9482 113d 8845 f13d
00000040: b4d2 9cbc 72ae 2bbc 3800 31bd e631 8cbd
00000050: f248 e8bc 23d6 b0bd 8b6c 87bd 6696 b13d
00000060: 3465 523c 7ab4 183e c6ed 943d f93c 333c
00000070: ce9c 83bd 6b24 f8bd 2dff c3bb 31a2 393d
00000080: 5754 103d a586 973a b795 933b 95da 623d
00000090: 9e66 593d 68bb 533c ab60 8ebd 67ff 37bd
000000a0: ce21 19bc 9294 69bb 87df 8a3c cefa 1d3d
000000b0: d82b 88bd 19c6 1bbd 2115 0e3c 246b b13d
000000c0: 35da 383d c2ef 37be 2691 86bd 4483 163e
000000d0: 4b0e 683d 1260 b9bd 33d2 2bbe b8e4 c8bc
000000e0: 35a4 223e 7d31 0b3e 7833 8fbd 78f6 22bd
000000f0: 3052 36bd b09c 793c 8eb6 94bd a3c4 1cbd
00000100: 226b 7fbc 77c6 bfbc 2036 00be 77a3 d5bd
00000110: 0a6b 073e 68ac 18bd 8bfb bb3a fd8d 6f3d
00000120: 54b9 5bbc 2771 b2bb aeed 783c 887f 183c
00000130: 2ae7 efbc 815f 2abd 9673 573d 97fe d8bd
00000140: 138c 843d dc98 c53d d880 c2bd 074e 043e
00000150: a4c4 96bd b85e 743d bec6 aa3c fa16 50bd
00000160: 3ecf 0abd 8fb4 e63d d681 b63d a5ad 893d
00000170: 65c5 8fbd a2e4 2e3e 7e16 32bd a265 bebd
00000180: 6e61 073d f039 d33d 51a4 9a3d 27a7 e2bd
00000190: 6cb7 493d 3e3d 70bd 2150 82bd 2eeb 1dbe
000001a0: 2d6f 6f3c 567b bebd c46f d6bc 067a 743d
000001b0: ccdc 163c 4fbf e2bd 8311 f63c af1d 063d
000001c0: 1ffb bfbd 53be 5e3a d3a8 29bd 3d37 7a3d
000001d0: 4e30 b5bd 8f9b d8bd 8390 f2bd ef29 97bd
000001e0: 2abf dcbc 17bf 04bd 613e ac3d 5a5e e4bb
000001f0: d29c 983d 831e 0fbd e390 b8bd 3786 2dbc
00000200: 0388 e6bd 116d ecbb 91a1 1ebe 89bb 213d
00000210: ecfa 49bd b953 ef3c abe8 babc b200 c2bd
00000220: d2bf b73c 8a2d b7bd b166 a1bb 6f62 933d
00000230: bd9a 823d 9726 47bc 4bd7 7dbd 50c6 e73d
00000240: d23e 053d ac88 6f3d a84e 013d 98ea 1b3e
00000250: 2840 c53d 7132 a7bc e657 be3d 3e03 823d
00000260: 2fcc b33d cba4 ecbc 2445 28bd ddd0 853d
00000270: 3337 acbd d0bd 233d df69 393c 52cd 2dbc
00000280: 1383 cb3d c187 d6bd 5aea 89bd 46c6 b33d
00000290: d160 4cbd b45c e13c b776 f0bb cb25 02be
000002a0: 2c9b a6bd 1081 d33b f0d6 da3d 4be4 993d
000002b0: 0db7 bcbd 0709 a2bc fb7a 47bd ccc5 d23c
000002c0: b82e 313c 4fa4 af3d d42d 703c c470 3d3d
000002d0: cc91 723d 5f16 e83d ccf9 613d bfb4 db3c
000002e0: 63bf 073e dc04 b23c df3c 37bd dad0 1e3d
000002f0: 622e 30be 5e9c 83bc a209 d03c b3ae 683d
00000300: 3d5d aabd 6fae d93b c6d3 27bd 131e 9e3d
00000310: 5c7d 82bd 7168 71bd bdd8 15bb d812 893d
00000320: 6e8d e6bd 4a38 e6bd 93b6 c2bd 845b e5bd
00000330: 22bb bfbd a3c1 29bd bbe9 7bbc d7b2 1abd
00000340: 78c3 d53d b088 af3b 8622 043d 862e 56bd
00000350: bee6 713d 8031 0cbe 3aef 29be 8df5 7f3d
00000360: 56b0 193d 27ac 89bc 92b1 b33d c6ee 2cbd
00000370: 1e6a 0c3c 4fc0 f4bd 43f4 beba 203f 163b
00000380: b23e 30bb bf2e 093d 77d8 b43d fe0f f33d
00000390: 2b87 c03d 3af0 d23d 10ad 613d 020c 513d
000003a0: 19d4 8a3d 79e4 513d aa3f 2ebd 136b 9a3d
000003b0: 5170 8f3c 0c69 ab3d c818 8b3d 5330 f53d
000003c0: 2881 d4bd 07fe 9abc c068 78bd 7ef6 26be
000003d0: b782 d23c efab ee3c 51cd 16bd c583 b23c
000003e0: c3e9 973d f3eb da3c a513 e5bd 9eb5 333e
000003f0: 0441 33bd 5876 063d 63e1 67b9 84ff 16be

y3 f4 [28, 28]
-0.0013080699 -0.05790893 -0.028972931 0.09974584 0.04895918 -0.017850958 -0.009991173 0.14121819
0.038000166 -0.07437548 0.04630058 0.10188243 0.042792067 -0.0678479 0.0104253 -0.08816269
0.027731204 -0.064522184 0.06152744 -0.032959286 -0.040939257 -0.06327533 0.016572783 -0.17023192
-0.11585196 -0.09214716 0.04278101 -0.052650936 0.05199217 -0.012615895 0.077808075 0.0037760155
0.032598052 0.016025014 -0.054800235 0.10344878 0.021143569 -0.023784425 0.13088089 0.043300275
0.04401137 -0.14245997 0.042552367 -0.05353595 0.03400695 0.12372769 0.095794834 -0.03602254
0.07326772 0.034897957 -0.04167168 -0.13088043 -0.041524086 -0.040078636 0.07856942 -0.06287507
0.040261026 -0.08610327 -0.011963157 0.05648734 -0.05957624 -0.033120666 -0.066814184 0.026817517
0.03473379 -0.058755193 0.016714273 0.0393174 0.03776423 -0.04259984 0.024970014 -0.036314018
-0.0061929203 0.032783717 0.05453792 0.011119083 0.03730773 -0.012475188 -0.041946486 -0.065532714
-0.025324505 -0.06192132 -0.040775444 -0.034993324 -0.10871938 -0.012303164 -0.060204197 0.010659127
-0.048799697 -0.04464129 0.0005318236 -0.0728931 0.026712017 -0.028138569 -0.04471585 0.025001524
-0.0097829765 0.03198493 -0.065885894 0.019450873 -0.068888344 -0.0796689 -0.017972851 0.0031617412
-0.051754545 -0.12321801 0.02817973 -0.014580837 -0.00033297503 0.011184025 -0.07296639 -0.030915799
-0.015449822 -0.022897294 0.05251904 0.012729674 0.012788484 0.021733506 -0.09885511 0.037279587
-0.060681142 -0.12796007 -0.056207165 -0.01975313 0.04270093 -0.06580757 -0.021375885 -0.043849625
0.02663846 0.026695773 0.015094258 -0.010198568 0.05747817 0.09120964 -0.089779966 -0.13072824
-0.090897 -0.0027821595 -0.044213314 0.014404906 0.011312717 0.001214002 0.013776549 0.055618085
-0.031893842 0.014259431 -0.06951958 0.06745935 -0.021862261 -0.0640217 0.010725698 0.010107382
0.04415677 -0.02450502 0.0054049036 -0.08983038 -0.0029549487 -0.04025283 0.049671367 -0.050814986
0.0053004213 0.021347355 -0.015796082 -0.12566733 -0.10268999 -0.08595759 0.017435035 -0.040681355
-0.017944658 0.03840912 0.050890837 -0.010068207 0.090605125 0.073218934 -0.002534364 0.015476744
0.11112467 0.0895092 -0.08533462 0.04163307 0.04680618 0.021084659 -0.015752241 0.06587116
0.007969686 0.08136652 -0.012214419 0.15889671 0.11208185 0.11801528 -0.038052235 0.11092139
0.10097487 0.15272596 -0.12487923 0.14340724 -0.12835495 -0.09893207 -0.039960325 0.06913296
-0.031724613 -0.04462452 -0.0094845565 0.00062016293 0.015406884 -0.047495183 0.021631695 0.042351186
0.017628225 -0.016998615 -0.052785616 -0.03484751 -0.04726857 -0.06569102 0.018316945 -0.06469599
-0.09332573 -0.121692814 0.012721233 -0.17427167 -0.1046369 -0.08655522 0.011922864 -0.015560937
-0.05714055 -0.037567563 -0.004014052 -0.012033663 0.041861735 0.030477898 -0.1035659 -0.01762014
-0.0041831783 -0.094747394 -0.052893646 -0.021517603 0.046321053 -0.056474697 -0.100500934 -0.043565277
-0.07322367 -0.021141224 -0.0095664235 -0.0098839365 0.015783906 -0.038784757 -0.10267501 -0.1212991
-0.07766635 -0.04361417 -0.08676954 0.016258506 0.08129667 0.0319615 0.057077866 0.029176641
00000000: 8b73 abba ea31 6dbd a458 edbc 8c47 cc3d
00000010: 6c89 483d 2c3c 92bc 04b2 23bc 809b 103e
00000020: 10a6 1b3d 2c52 98bd ada5 3d3d bca7 d03d
00000030: bc46 2f3d d7f3 8abd e1ce 2a3c a48e b4bd
00000040: 8d2c e33c 3524 84bd 3204 7c3d 5100 07bd
00000050: ecaf 27bd 7f96 81bd a5c3 873c 4751 2ebe
00000060: cb43 edbd a6b7 bcbd 243b 2f3d 82a8 57bd
00000070: bef5 543d e6b2 4ebc d759 9f3d 0777 773b
00000080: 8985 053d e446 833c 3676 60bd f4dc d33d
00000090: 4735 ad3c 8ed7 c2bc a405 063e a15b 313d
000000a0: 4445 343d 07e1 11be 644b 2e3d 8348 5bbd
000000b0: df4a 0b3d f164 fd3d 1530 c43d 5f8c 13bd
000000c0: 630d 963d 29f1 0e3d ecaf 2abd 8505 06be
000000d0: 2915 2abd 7f29 24bd 01e9 a03d a5c4 80bd
000000e0: bfe8 243d e956 b0bd 1e01 44bc 455f 673d
000000f0: 3706 74bd 89a9 07bd e0d5 88bd 69b0 db3c
00000100: 0545 0e3d 49a9 70bd 5fec 883c 480b 213d
00000110: aaae 1a3d 2b7d 2ebd ea8d cc3c 02be 14bd
00000120: fbed cabb 3848 063d 2763 5f3d d02c 363c
00000130: fecf 183d bb64 4cbc 14d0 2bbd 0436 86bd
00000140: 5675 cfbc 36a1 7dbd 2704 27bd 2955 0fbd
00000150: 44a8 debd 3693 49bc ad98 76bd 9ea3 2e3c
00000160: 31e2 47bd c9d9 36bd 146a 0b3a fa48 95bd
00000170: 29d3 da3c db82 e6bc f827 37bd ffcf cc3c
00000180: c748 20bc a102 033d 2fef 86bd 7057 9f3c
00000190: 5515 8dbd 7329 a3bd cd3b 93bc 3735 4f3b
000001a0: 93fc 53bd b959 fcbd 2dd9 e63c 77e4 6ebc
000001b0: 2793 aeb9 333d 373c 676f 95bd 2143 fdbc
000001c0: 4021 7dbc 1b93 bbbc 341e 573d 1f90 503c
000001d0: ca86 513c 770a b23c 8c74 cabd 7bb2 183d
000001e0: ca8c 78bd f707 03be 7c39 66bd 51d1 a1bc
000001f0: 2ce7 2e3d 1fc6 86bd 7b1c afbc aa9b 33bd
00000200: e638 da3c 18b1 da3c e84d 773c e517 27bc
00000210: 3b6e 6b3d 1fcc ba3d 8fde b7bd a0dd 05be
00000220: 3528 babd e454 36bb 0519 35bd 8e02 6c3c
00000230: f958 393c 261f 9f3a 09b7 613c cacf 633d
00000240: 1ea3 02bd 63a0 693c 4860 8ebd 2128 8a3d
00000250: 7c18 b3bc cf1d 83bd d7ba 2f3c 6f99 253c
00000260: bbdd 343d c0be c8bc 9e1b b13b fef8 b7bd
00000270: d0a7 41bb 27e0 24bd 3474 4b3d 6023 50bd
00000280: 28af ad3b a6e0 ae3c c966 81bc f0ae 00be
00000290: 214f d2bd 880a b0bd ebd3 8e3c 7ea1 26bd
000002a0: ad00 93bc e252 1d3d e972 503d 1ff5 24bc
000002b0: 2e8f b93d cff3 953d 9217 26bb 2b92 7d3c
000002c0: 5595 e33d 9950 b73d ebc3 aebd 7087 2a3d
000002d0: d6b7 3f3d bcb9 ac3c d80a 81bc 75e7 863d
000002e0: 4993 023c 7da3 a63d fd1e 48bc d2b5 223e
000002f0: 2b8b e53d ffb1 f13d a9dc 1bbd c12a e33d
00000300: eacb ce3d 3264 1c3e afc0 ffbd 59d9 123e
00000310: 7b6f 03be e69c cabd 70ad 23bd 9595 8d3d
00000320: abf1 01bd 33c8 36bd 1d65 1bbc 6e92 223a
00000330: 286d 7c3c 4f8a 42bd f434 b13c 7078 2d3d
00000340: 1169 903c ae40 8bbc bb35 58bd 43bc 0ebd
00000350: b09c 41bd 0389 86bd 6b0d 963c 557f 84bd
00000360: 8f21 bfbd 153a f9bd b86c 503c 4674 32be
00000370: df4b d6bd dd43 b1bd 1e58 433c 4df3 7ebc
00000380: 360c 6abd 72e0 19bd 4f88 83bb d728 45bc
00000390: 3677 2b3d c9ac f93c 5c1a d4bd 1d58 90bc
000003a0: 0b13 89bb ec0a c2bd 02a7 58bd af45 b0bc
000003b0: 25bb 3d3d 0352 67bd 6fd3 cdbd 8171 32bd
000003c0: 4bf6 95bd 5c30 adbc 7dbc 1cbc 3cf0 21bc
000003d0: 404d 813c c4dc 1ebd 4747 d2bd aa6b f8bd
000003e0: 890f 9fbd c6a4 32bd 3bb4 b1bd 8f30 853c
000003f0: de7e a63d 10ea 023d 7bca 693d da03 ef3c

x3corner f4 [10, 10]
-0.0066990526 -0.003696111 -0.053898007 -0.096859515 0.09366212 0.063179046 -0.05291837 0.12100929
-0.022914112 0.06247921 -0.109634206 -0.007181206 -0.015471703 0.13722391 -0.004072615 0.07996109
0.04445975 0.023855234 -0.044212423 -0.05555226 0.18944779 -0.033727463 -0.029103516 -0.015980411
0.11683205 -0.04515094 0.030880723 0.10289325 -0.0204545 0.023019172 -0.05881534 0.08855642
0.064579986 0.09617312 -0.005535981 0.05778984 -0.06644675 0.049219944 -0.113337725 -0.09643226
0.044187605 0.04613965 0.033912994 -0.11397999 -0.07880853 -0.097574405 -0.12008454 0.08837721
-0.07346859 0.07376938 -0.13709258 0.07977186 -0.031603478 0.009537696 -0.01932527 -0.050068203
0.022926385 0.13036385 -0.017257271 -0.037930813 0.05927451 -0.03502007 0.02049583 0.04899281
0.048942305 -0.00992116 0.08179691 0.099646315 -0.023556896 -0.13312888 0.08645555 0.067925595
-0.043696683 -0.10800028 -0.042804528 -0.063498445 -0.06537502 0.09912648 0.007523959 0.021523999
0.13380656 0.00043586153 0.013025921 -0.08662956 -0.0053186803 -0.06784268 0.04132658 -0.08017984
-0.19030869 -0.040253296 -0.057910614 -0.020155141 0.009367022 0.06497743 -0.10803346 0.07129302
0.044536415 -0.010598236 0.094602324 0.009826662
00000000: ba83 dbbb 743a 72bb 28c4 5cbd 485e c6bd
00000010: edd1 bf3d 0464 813d efc0 58bd b8d3 f73d
00000020: 60b6 bbbc 33ea 7f3d e687 e0bd 5250 ebbb
00000030: 077d 7dbc 6d84 0c3e 9273 85bb a4c2 a33d
00000040: 6d1b 363d 0d6c c33c 1618 35bd c48a 63bd
00000050: 9afe 413e cf25 0abd 7f6a eebc 5ae9 82bc
00000060: a445 ef3d 31f0 38bd 92f9 fc3c b2b9 d23d
00000070: 3290 a7bc b492 bc3c 5be8 70bd 115d b53d
00000080: 8342 843d 6af6 c43d 2d67 b5bb 0ab5 6c3d
00000090: 3c15 88bd da9a 493d 9c1d e8bd 477e c5bd
000000a0: 10fe 343d eefc 3c3d 5ae8 0a3d 576e e9bd
000000b0: 5e66 a1bd 17d5 c7bd e2ee f5bd 1cff b43d
000000c0: b376 96bd 6714 973d ff61 0cbe 6e5f a33d
000000d0: a672 01bd ff43 1c3c 0750 9ebc 5114 4dbd
000000e0: 1dd0 bb3c 1a7e 053e 1f5f 8dbc 575d 1bbd
000000f0: d4c9 723d 3471 0fbd dfe6 a73c afac 483d
00000100: ba77 483d 5c8c 22bc 2385 a73d 5e13 cc3d
00000110: 64fa c0bc f052 08be 9b0f b13d 931c 8b3d
00000120: 4bfb 32bd 402f ddbd cd53 2fbd 790b 82bd
00000130: 57e3 85bd d302 cb3d 8b8b f63b 1953 b03c
00000140: 9604 093e 5884 e439 ac6a 553c d76a b1bd
00000150: 5348 aebb 1af1 8abd 0f46 293d 5435 a4bd
00000160: 48e0 42be a4e0 24bd ae33 6dbd 651c a5bc
00000170: 2378 193c e312 853d a640 ddbd 1302 923d
00000180: d16b 363d 39a4 2dbc ddbe c13d 0200 213c

y3corner f4 [10, 10]
0.010693069 0.02563587 0.05249004 -0.03949708 -0.09970593 -0.009518443 0.00463992 -0.035492625
-0.04375555 0.035935853 -0.03450504 0.004464334 -0.007874261 0.06060362 0.08931521 0.0333421
0.04731376 0.061503675 0.05846345 0.092166185 -0.011226877 -0.0054380717 -0.00390401 0.07113839
0.067112446 0.07323584 0.08102731 0.09946751 0.054536596 0.051335186 0.04791329 -0.04356695
-0.05220661 -0.0067358036 0.030826282 -0.048044793 -0.018295621 0.052257072 0.04397745 0.012002541
0.10211448 -0.06152686 -0.073260546 -0.042160295 -0.0027695606 -0.06533901 -0.027080897 -0.06263215
-0.018613113 0.013032137 0.011082203 -0.044874698 -0.09850519 0.03822216 0.06054354 0.0069732047
-0.013587841 0.07102847 0.05495765 0.053047117 0.0028234345 -0.063430816 -0.077198006 0.0040905927
0.025676008 0.010903823 -0.0024486615 0.06751615 0.04513093 0.034681056 0.018424502 -0.06310349
-0.086079106 -0.04381205 0.07087824 -0.06770425 -0.0550463 0.010866935 0.018165275 0.048145436
0.032946423 -0.05928514 -0.052367676 -0.038950063 0.027625823 -0.04324133 -0.057717178 -0.009822099
-0.0038448547 0.012866717 -0.022394793 -0.078557745 -0.07540716 -0.030111412 -0.0014011931 -0.032876518
-0.024377802 -0.06583781 -0.03767873 -0.0020875488
00000000: fb31 2f3c 5102 d23c ccff 563d b1c7 21bd
00000010: 9f32 ccbd 3ef3 1bbc 780a 983b b760 11bd
00000020: 0539 33bd 7931 133d 2855 0dbd 8c49 923b
00000030: 0b03 01bc 803b 783d e5ea b63d ba91 083d
00000040: 13cc 413d 47eb 7b3d 5f77 6f3d a0c1 bc3d
00000050: eff0 37bc da31 b2bb 6bda 7fbb 01b1 913d
00000060: 4072 893d acfc 953d a5f1 a53d 9fb5 cb3d
00000070: c461 5f3d d844 523d ba40 443d 4273 32bd
00000080: 99d6 55bd 04b8 dcbb 6687 fc3c 9eca 44bd
00000090: b3e0 95bc 830b 563d b321 343d 4ea6 443c
000000a0: 6621 d13d 9703 7cbd a009 96bd 46b0 2cbd
000000b0: 8481 35bb 75d0 85bd c2d8 ddbc 4945 80bd
000000c0: 877a 98bc bf84 553c 2192 353c 88ce 37bd
000000d0: 17bd c9bd d78e 1c3d 81fc 773d 7b7f e43b
000000e0: 899f 5ebc 6077 913d 461b 613d ef47 593d
000000f0: 5f09 393b 04e8 81bd fd19 9ebd 610a 863b
00000100: 7e56 d23c f3a5 323c b979 20bb e845 8a3d
00000110: 36db 383d b90d 0e3d fbee 963c 673c 81bd
00000120: 3e4a b0bd 4474 33bd 9c28 913d 87a8 8abd
00000130: 3b78 61bd 3b0b 323c 58cf 943c 2634 453d
00000140: d4f2 063d fad4 72bd 7d7f 56bd 1a8a 1fbd
00000150: 8d4f e23c d21d 31bd d968 6cbd deec 20bc
00000160: f5f9 7bbb ecce 523c 4975 b7bc e2e2 a0bd
00000170: 126f 9abd 35ac f6bc 3da8 b7ba 87a9 06bd
00000180: f5b3 c7bc f9d5 86bd 0355 1abd 42cf 08bb

b2 f4 [3, 28]
-0.030298688 -0.027380737 0.060813546 0.06832659 0.117906265 0.050084405 0.109339595 0.023373997
0.09418851 -0.07737552 -0.030632019 0.06308963 0.0188511 0.086030364 -0.13979892 -0.093695566
0.0407938 0.027222352 0.028016705 0.10509757 0.026279435 -0.08970278 0.015727874 -0.042276677
-0.05768141 0.08607588 -0.057096772 0.04189262 0.015010269 0.050451703 0.03076665 -0.091978796
0.0036272025 0.030328099 0.048831705 -0.018684695 0.023279423 -0.00804305 -0.04795777 0.01572091
0.022063963 0.0009809916 -0.06697005 0.09676961 -0.09836289 0.07872268 -0.11783027 -0.0062571014
0.01916864 -0.09222292 -0.09219617 0.13372824 0.16321926 0.05561835 -0.03924655 0.04568709
0.061951187 0.05325089 0.110567756 0.036140624 -0.007929279 0.11196318 -0.021547753 0.0006832986
-0.006902253 -0.0068860264 -0.06921018 -0.015352963 -0.026195602 0.043168522 0.0008147907 -0.042261217
0.100586504 -0.004002967 0.086416304 -0.03929159 -0.041471142 0.058619287 -0.0777021 0.091726266
0.011309212 0.050203 -0.11364493 0.05586031
00000000: f434 f8bc 914d e0bc a017 793d d0ee 8b3d
00000010: d778 f13d 4e25 4d3d 70ed df3d d37a bf3c
00000020: e8e5 c03d 0e77 9ebd 00f0 fabc 2335 813d
00000030: 9f6d 9a3c b030 b03d 7327 0fbe 76e3 bfbd
00000040: 6617 273d 6901 df3c 4a83 e53c 653d d73d
00000050: f847 d73c 17b6 b7bd bed7 803c 4f2a 2dbd
00000060: 5843 6cbd 8d48 b03d 4ede 69bd 9997 2b3d
00000070: a2ed 753c 72a6 4e3d 570a fc3c 615f bcbd
00000080: 5cb6 6d3b a272 f83c c103 483d a510 99bc
00000090: 7db4 be3c ffc6 03bc 5e6f 44bd 23c9 803c
000000a0: 7cbf b43c 9e94 803a 9827 89bd 252f c63d
000000b0: 7c72 c9bd 5b39 a13d ff50 f1bd 5f08 cdbb
000000c0: 8d07 9d3c 5fdf bcbd 58d1 bcbd 0ef0 083e
000000d0: f322 273e 11d0 633d fec0 20bd 6322 3b3d
000000e0: 87c0 7d3d 9b1d 5a3d 5971 e23d 3108 143d
000000f0: cee9 01bc f44c e53d ea84 b0bc 651f 333a
00000100: 4b2c e2bb 2da4 e1bb 11be 8dbd fe8a 7bbc
00000110: 2998 d6bc 7ad1 303d ae97 553a 191a 2dbd
00000120: 4c00 ce3d 522b 83bb 08fb b03d 38f0 20bd
00000130: a5dd 29bd c71a 703d 4722 9fbd fbda bb3d
00000140: 464a 393c a9a1 4d3d acbe e8bd c8cd 643d

d12 f4 [3, 28]
-0.058503337 -0.025083307 -0.009505076 0.004537252 -0.020463983 -0.039968204 0.046183564 0.024941567
0.07791887 0.008646072 0.0853321 -0.02927216 -0.023937114 -0.059106447 -0.05789933 -0.00046092464
-0.030120641 0.045482256 -0.038384497 0.016259044 -0.021991914 0.005569048 0.013526928 -0.06551053
-0.025100145 -0.032217003 -0.01899783 -0.060180694 -0.02003878 -0.04623396 0.007887987 0.03876155
-0.09843625 -0.05894264 -0.0930973 -0.12568662 -0.11052953 0.056673218 -0.036866028 -0.09380454
0.0337806 0.1329972 0.16859853 -0.013615843 0.02584248 -0.07403931 0.024168001 -0.046242177
0.04823185 0.114041254 -0.052648753 0.07972729 -0.017308466 -0.0046402765 -0.0027757236 0.048137203
-0.11865978 0.044609465 0.055939674 -0.058380734 0.033605684 0.0046548853 0.19115168 -0.08546428
0.023027336 -0.08632794 -0.092837065 0.015204134 -0.009554259 0.06690982 -0.086877264 -0.09038475
-0.042101815 -0.13885437 -0.04609126 -0.04256759 -0.05230201 0.04869376 0.09136478 -0.04260618
-0.014954815 -0.017143507 0.008457608 0.00050352246
00000000: 32a1 6fbd 827b cdbc 2ebb 1bbc 3aad 943b
00000010: 15a4 a7bc b3b5 23bd fa2a 3d3d 4252 cc3c
00000020: ee93 9f3d 41a8 0d3c 99c2 ae3d 2bcc efbc
00000030: c417 c4bc 9a19 72bd d927 6dbd 42a8 f1b9
00000040: 90bf f6bc 9a4b 3a3d 1039 1dbd b031 853c
00000050: 6328 b4bc 907c b63b 0ca0 5d3c 622a 86bd
00000060: d29e cdbc faf5 03bd 56a1 9bbc 0880 76bd
00000070: 5e28 a4bc d25f 3dbd 9e3c 013c 6ec4 1e3d
00000080: f298 c9bd d66d 71bd cca9 bebd feb3 00be
00000090: 4e5d e2bd 2d22 683d d500 17bd 981c c0bd
000000a0: 875d 0a3d 6b30 083e 18a5 2c3e fc14 5fbc
000000b0: 9cb3 d33c eca1 97bd f9fb c53c 7068 3dbd
000000c0: c38e 453d 768e e93d 38a6 57bd 1048 a33d
000000d0: 7cca 8dbc 760d 98bb eae8 35bb 842b 453d
000000e0: e603 f3bd 6ab8 363d 0021 653d a320 6fbd
000000f0: 1da6 093d 0288 983b 44bd 433e e507 afbd
00000100: d3a3 bc3c b4cc b0bd 5c21 bebd c31a 793c
00000110: 7789 1cbc 0408 893d b5ec b1bd a41b b9bd
00000120: f472 2cbd d72f 0ebe 30ca 3cbd 5a5b 2ebd
00000130: a23a 56bd 1c73 473d 751d bb3d d183 2ebd
00000140: 0a05 75bc 8a70 8cbc c791 0a3c d2fe 033a

b2last f4 [3, 10]
-0.01589249 0.019754888 0.044271387 -0.00055527675 -0.03879292 -0.04244045 0.015481088 -0.0115385745
-0.08404739 0.050484154 -0.17369299 0.09427571 0.05738997 0.009116342 -0.06567088 0.10291559
0.1356636 0.05861224 0.018110061 0.0753067 -0.03580368 0.053766146 0.032620188 0.023088899
-0.062011044 -0.033381082 0.071028106 -0.008889361 -0.03097876 -0.0854866
00000000: f830 82bc 01d5 a13c ea55 353d fe8f 11ba
00000010: 53e5 1ebd 0ad6 2dbd 64a4 7d3c 4a0c 3dbc
00000020: 0a21 acbd 79c8 4e3d 93dc 31be a013 c13d
00000030: bf11 6b3d b65c 153c 747e 86bd 69c5 d23d
00000040: 66eb 0a3e 6313 703d 8d5b 943c 663a 9a3d
00000050: e1a6 12bd e439 5c3d bf9c 053d ee24 bd3c
00000060: 4bff 7dbd 9aba 08bd 2f77 913d afa4 11bc
00000070: 2bc7 fdbc 9913 afbd

d12last f4 [3, 10]
0.042153798 -0.105785616 -0.087085545 0.031344585 0.11093858 -0.03136162 -0.039093968 -0.0071863504
0.078849785 -0.00036979478 0.074875 0.15323845 0.1431999 -0.13518807 -0.062992245 0.04223806
0.07706924 -0.033295106 0.02812032 -0.09418927 0.027322913 -0.07846419 -0.12060782 -0.006633504
0.07181507 -0.025990896 -0.097771145 -0.056252267 0.11748539 0.092805974
00000000: 76a9 2c3d 21a6 d8bd e859 b2bd 2e63 003d
00000010: c433 e33d 0b75 00bd ff20 20bd 7a7b ebbb
00000020: ff7b a13d 04e1 c1b9 1058 993d 8aea 1c3e
00000030: ffa2 123e be6e 0abe 1402 81bd d101 2d3d
00000040: 7ad6 9d3d 7360 08bd 965c e63c 4ee6 c0bd
00000050: 4dd4 df3c d5b1 a0bd 3c01 f7bd dd5d d9bb
00000060: c813 933d dcea d4bc 3d3c c8bd c768 66bd
00000070: 2e9c f03d 0f11 be3d

c2 f4 [28, 3]
-0.121196516 0.13455808 0.022158189 -0.03943177 -0.009948728 0.06756127 0.12562095 -0.14210562
0.17617188 0.039480567 -0.029667407 -0.010336908 0.058285706 -0.09458359 0.08923055 -0.10731316
-0.027710611 -0.015115182 0.06511287 -0.23591223 0.20846087 -0.07475067 0.09976631 -0.07892022
-0.021057505 -0.13366762 0.08800621 0.061334927 -0.1599308 0.18182208 -0.17226727 0.09675532
-0.1465772 -0.08734407 -0.08781997 -0.0031543756 0.15904467 -0.055976726 -0.02682668 0.15096076
-0.1759928 0.14758064 0.024395697 -0.004114839 0.047851067 -0.038567513 -0.13732433 0.14537525
0.02838773 -0.11395525 0.045494225 -0.18127526 0.058131568 -0.031717796 -0.02532504 0.13740838
-0.07031585 0.04845262 -0.1558829 0.101985894 0.07053203 -0.108158655 0.10132815 0.13179672
-0.14258857 0.13137959 0.09158436 -0.17177998 0.11110567 0.040444475 -0.20026472 0.16098276
0.06326997 -0.16433294 0.21674636 0.0027551034 -0.21345557 0.15958968 -0.024377178 -0.0027472256
-0.02505992 0.20340213 -0.11578626 0.15739718
00000000: e135 f8bd 98c9 093e 1785 b53c 3583 21bd
00000010: fdff 22bc 905d 8a3d c7a2 003e 2384 11be
00000020: 6766 343e 60b6 213d 1009 f3bc 225c 29bc
00000030: febc 6e3d 0bb5 c1bd 82be b63d 01c7 dbbd
00000040: 5d01 e3bc aba5 77bc e559 853d fa92 71be
00000050: c476 553e e116 99bd 4752 cc3d eda0 a1bd
00000060: ca80 acbc 2ae0 08be 9a3c b43d 553a 7b3d
00000070: e6c4 23be 912f 3a3e d566 30be a727 c63d
00000080: 5518 16be 73e1 b2bd f5da b3bd a4b9 4ebb
00000090: 9bdc 223e da47 65bd a0c3 dbbc 7595 1a3e
000000a0: 7537 34be 611f 173e 7cd9 c73c c5d5 86bb
000000b0: 7bff 433d f8f8 1dbd c09e 0cbe 40dd 143e
000000c0: 628d e83c 5f61 e9bd 2758 3a3d 39a0 39be
000000d0: 5e1b 6e3d 85ea 01bd 7576 cfbc c8b4 0c3e
000000e0: c201 90bd 4176 463d c49f 1fbe fbdd d03d
000000f0: 1973 903d 4982 ddbd 2285 cf3d b8f5 063e
00000100: bd02 12be 5f88 063e 9590 bb3d 17e7 2fbe
00000110: 5f8b e33d 1ba9 253d 3212 4dbe aad8 243e
00000120: b093 813d e546 28be c2f2 5d3e f78e 343b
00000130: 1994 5abe 7a6b 233e a6b2 c7bc cc0a 34bb
00000140: 764a cdbc a648 503e 5921 edbd ba2c 213e

d21 f4 [28, 3]
-0.1124961 -0.0022315306 -0.16276148 0.07310791 0.06233026 0.007095816 -0.06120238 -0.024673274
0.045452375 -0.08511561 0.012604041 -0.111063786 0.028754646 0.03525249 0.12915485 -0.03885127
-0.09413376 -0.025140703 0.09239349 -0.060328152 0.023747422 -0.071623944 -0.005827141 -0.031258825
0.19531398 0.051834725 0.096137024 0.023260312 0.033531792 0.015460107 -0.0072035263 0.022750894
-0.16786887 -0.016434567 -0.049883187 -0.020397007 -0.09235835 -0.019267917 -0.0183176 0.02352746
0.18092713 0.053832676 -0.1348261 0.13069028 -0.11537317 0.12934765 0.057874158 -0.020590272
-0.19857036 -0.077691264 -0.06610823 -0.013284304 -0.085500605 -0.10245122 -0.07401312 0.027759172
-0.010429559 0.0915366 -0.056835916 0.072754435 -0.04858679 0.037908845 0.09264845 -0.014230278
0.030338269 0.12673697 0.012928513 -0.023535572 -0.0014816088 0.06911035 0.17065646 0.019910032
0.07786106 0.056058615 -0.011862056 0.06795432 -0.004150211 0.04400292 -0.10992948 -0.046194024
-0.17942761 -0.017271882 0.02769201 0.13028395
00000000: 5b64 e6bd df3e 12bb f2aa 26be 9ab9 953d
00000010: 044e 7f3d 0584 e83b 59af 7abd 9b1f cabc
00000020: 452c 3a3d 1851 aebd 2e81 4e3c 6975 e3bd
00000030: dd8e eb3c ea64 103d 2b41 043e 8222 1fbd
00000040: 33c9 c0bd e0f3 cdbc cc38 bd3d a71a 77bd
00000050: f489 c23c 93af 92bd 9af1 bebb 4109 00bd
00000060: 6300 483e a650 543d 7de3 c43d 698c be3c
00000070: a258 093d 634c 7d3c 8f0b ecbb 1560 ba3c
00000080: d1e5 2bbe c9a1 86bc 5052 4cbd a017 a7bc
00000090: 6026 bdbd c0d7 9dbc cb0e 96bc a9bc c03c
000000a0: f644 393e a77f 5c3d da0f 0abe acd3 053e
000000b0: c548 ecbd b673 043e 740d 6d3d eeac a8bc
000000c0: 0756 4bbe 991c 9fbd c063 87bd 69a6 59bc
000000d0: f11a afbd f2d1 d1bd 3194 97bd 3467 e33c
000000e0: bee0 2abc 8a77 bb3d c7cc 68bd 4700 953d
000000f0: f102 47bd 4e46 1b3d 78be bd3d 1d26 69bc
00000100: f687 f83c 56c7 013e 1dd2 533c accd c0bc
00000110: 8b32 c2ba ba89 8d3d 91c0 2e3e 5d1a a33c
00000120: 9f75 9f3d b89d 653d 1259 42bc a22b 8b3d
00000130: 7efe 87bb 683c 343d b522 e1bd f235 3dbd
00000140: dfbb 37be c37d 8dbc 5bda e23c 2869 053e

c2last f4 [10, 3]
0.0499171 0.0085892305 -0.006278082 -0.095399156 -0.2351446 0.0040344154 -0.08985645 -0.22582743
-0.0054303426 0.0697573 0.1222361 0.110161506 0.08291163 0.21849707 0.057798225 -0.025042616
0.0009491301 0.12611698 0.02463673 0.10217795 0.097383454 -0.0874366 0.11970935 0.061212767
-0.102078564 0.027027145 0.0017991615 -0.124536216 0.006028857 -0.09698583
00000000: e075 4c3d d8b9 0c3c 5eb8 cdbb a260 c3bd
00000010: bfc9 70be 2133 843b a906 b8bd 4e3f 67be
00000020: 04f1 b1bb eadc 8e3d ec56 fa3d 5b9c e13d
00000030: 93cd a93d b2bd 5f3e d5bd 6c3d 2c26 cdbc
00000040: 0bcf 783a cf24 013e f8d2 c93c ac42 d13d
00000050: fa70 c73d f611 b3bd 2d2a f53d 3dba 7a3d
00000060: 910e d1bd 0868 dd3c d8d1 eb3a d80c ffbd
00000070: b88d c53b 82a0 c6bd

d21last f4 [10, 3]
0.04222405 0.03324959 0.045681074 -0.026975226 0.038075656 -0.09839277 0.012293641 0.108875655
-0.09863191 -0.09653265 -0.07148391 -0.014602722 -0.059538234 -0.06909481 0.0739921 -0.03390671
0.064686 -0.06100287 -0.10716172 0.012717641 -0.04749543 -0.12698108 -0.08649829 -0.0751414
-0.036170736 0.023959804 0.053837743 0.068376325 0.025124751 0.017490342
00000000: 20f3 2c3d b930 083d 141c 3b3d 26fb dcbc
00000010: 38f5 1b3d 2682 c9bd 456b 493c 33fa de3d
00000020: 87ff c9bd e9b2 c5bd 2866 92bd 4140 6fbc
00000030: 5dde 73bd 9481 8dbd 2c89 973d c3e1 0abd
00000040: 187a 843d 25de 79bd 9b77 dbbd a75d 503c
00000050: 918a 42bd 5407 02be 0426 b1bd bce3 99bd
00000060: c427 14bd 5a47 c43c f784 5c3d e308 8c3d
00000070: 6cd2 cd3c e847 8f3c

bx f4 [3]
0.103410415 -0.04626846 -0.010584947
00000000: d7c8 d33d ff83 3dbd 7c6c 2dbc

bv f4 [3]
0.08301429 -0.030535195 -0.048691448
00000000: 6503 aa3d f224 fabc af70 47bd

bu f4 [7850]
0.010596083 -0.015160788 0.017809853 -0.009008421 -0.0005609838 0.01726705 0.009919407 0.009573397
-0.010053702 0.017487755 0.01466853 -0.016532846 -0.011230575 0.014819149 0.02003043 0.0086032115
0.014267077 0.0146369655 0.016049836 0.016849332 0.011615529 -0.017649366 -0.01904149 0.009453393
-0.017402584 0.016151616 -0.015213251 0.006807339 0.016665824 0.04634163 -0.011515468 0.018843843
-0.009153924 -0.003041456 -0.012807286 0.010715798 -0.016257716 0.017438961 -0.009239835 0.009737372
-0.01095072 -0.0146116335 0.010622009 -0.016956376 0.017599924 -0.01365246 0.016704865 -0.012645479
0.015425453 0.010320141 0.010530829 -0.010161303 -0.010463835 -0.014875243 0.01692997 -0.016332159
-0.012246092 -0.0079580825 0.009716479 -0.012506825 0.014132841 -0.017192086 0.011169429 0.012510205
0.016524851 -0.01604452 0.01103158 -0.015158574 -0.01728707 -0.009624342 -0.013169986 -0.011766794
-0.01672549 0.016437182 -0.012537182 0.016118014 0.011716312 0.014220048 -0.011763471 -0.01968535
0.014790743 -0.016914077 0.0134723345 -0.01729067 -0.016861992 0.011150069 -0.016554603 0.008902706
-0.015344099 0.017436065 0.008220603 0.017806103 -0.011791343 -0.013407004 -0.0059055774 0.0158399
0.017517004 -0.014320305 0.01765589 0.017085638 -0.009742625 -0.010643492 0.0088801235 -0.008624712
0.019131577 -0.017650016 0.015920917 -0.018040268 -0.0016092368 -0.014528203 0.015660333 0.016790371
0.017547835 -0.01733329 -0.011374077 -0.009328248 -0.016977947 -0.016973553 0.01564395 0.015246295
0.015967116 -0.014951469 -0.017125953 -0.015849687 -0.0069843493 -0.017857553 -0.012789763 -0.016843053
0.010053552 0.01692939 -0.014256382 0.018187987 0.0026402993 -0.0052067474 -0.010749735 -0.014790249
0.01530919 0.0017234004 0.01944552 -0.010959459 0.017803557 0.011789369 0.017696926 0.012457195
0.009977719 -0.011572534 -0.011339766 0.017797131 -0.013247554 0.01409066 -0.0132881785 0.017095026
-0.004626789 0.0074803475 -0.0066485777 -0.017838582 0.016381063 0.007072873 -0.00953811 0.019030007
-0.017119203 -0.014737433 -0.017057473 0.007965406 0.008266529 0.01252365 0.014250905 -0.017525658
-0.009145875 -0.013147379 0.019310052 0.014035877 -0.0094939945 -0.016304685 -0.011323626 -0.008970676
-0.011269095 -0.014684124 0.010028047 0.010838005 -0.009678124 0.016431466 -0.012768373 0.0142287165
-0.013977834 0.0082241725 0.01719099 -0.017005745 -0.016691284 -0.016967988 0.015430235 0.018634466
0.008228659 0.0096793305 0.014496764 -0.00975686 -0.00403489 -0.010763761 0.019496633 -0.011405358
0.017669234 -0.0070744148 -0.015101142 0.01608474 -0.008256937 0.009834013 0.0021050554 -0.008950186
0.017482292 -0.01815124 -0.014670138 -0.0103853615 0.0019055689 -0.011627175 -0.01115209 -0.0151521675
-0.007909605 -0.019286908 0.011117678 0.008631638 -0.01781384 -0.010431616 0.016543241 -0.009075162
0.018920094 0.009452601 -0.008859996 -0.014108545 -0.016058488 0.009138312 0.011540178 -0.010357349
0.015144216 -0.017273273 0.01586481 -0.012635221 0.018742666 0.016593002 0.009730833 -0.0014519065
-0.014048161 -0.0035399985 0.014691788 -0.016526343 -0.010599783 -0.010196492 0.018688947 -0.01517323
0.0007137085 -0.010071075 0.010371739 -0.00968375 -0.013432699 -0.012243043 0.011903428 0.01785597
00000000: 319b 2d3c f464 78bc f8e5 913c 0e98 13bc
00000010: fc0e 13ba a173 8d3c 0285 223c bdd9 1c3c
00000020: 48b8 24bc 7b42 8f3c 4654 703c e46f 87bc
00000030: 7200 38bc 04cc 723c db16 a43c 7cf4 0c3c
00000040: 75c0 693c e2cf 6f3c f27a 833c 9c07 8a3c
00000050: 0f4f 3e3c 6795 90bc e6fc 9bbc 67e2 1a3c
00000060: dd8f 8ebc 6550 843c 0041 79bc 1910 df3b
00000070: c486 883c b9d0 3d3d 60ab 3cbc 675e 9a3c
00000080: 57fa 15bc 2a53 47bb a7d5 51bc 5091 2f3c
00000090: e72e 85bc 27dc 8e3c ad62 17bc 8089 1f3c
000000a0: a66a 33bc a265 6fbc ef07 2e3c 19e8 8abc
000000b0: b72d 903c 91ae 5fbc a4d8 883c fc2e 4fbc
000000c0: 0abb 7c3c cf15 293c 8089 2c3c 987b 26bc
000000d0: 8170 2bbc 4bb7 73bc b8b0 8a3c 05cb 85bc
000000e0: d5a3 48bc 9e62 02bc de31 1f3c 6de9 4cbc
000000f0: 6e8d 673c 6bd6 8cbc fbff 363c 9af7 4c3c
00000100: 205f 873c cc6f 83bc cdbd 343c ab5b 78bc
00000110: 9d9d 8dbc 6baf 1dbc edc6 57bc 83c9 40bc
00000120: e503 89bc 45a7 863c c168 4dbc ed09 843c
00000130: c6f5 3f3c 34fb 683c 93bb 40bc 2c43 a1bc
00000140: df54 723c 648f 8abc 11bb 5c3c 2aa5 8dbc
00000150: 2922 8abc c7ae 363c 859d 87bc a8dc 113c
00000160: d165 7bbc 14d6 8e3c b5af 063c 1bde 913c
00000170: 7a30 41bc 0da9 5bbc 9383 c1bb aec2 813c
00000180: d27f 8f3c b69f 6abc 16a3 903c 2ef7 8b3c
00000190: 889f 1fbc 0b62 2ebc f07d 113c aa4e 0dbc
000001a0: d3b9 9c3c c496 90bc 956c 823c 2fc9 93bc
000001b0: 07ed d2ba b307 6ebc 194a 803c f68b 893c
000001c0: 7ac0 8f3c 8bfe 8dbc 565a 3abc 82d5 18bc
000001d0: 5615 8bbc 1f0c 8bbc be27 803c 99cb 793c
000001e0: 78cd 823c 02f7 74bc ba4b 8cbc 34d7 81bc
000001f0: f8dc e4bb 014a 92bc 278c 51bc 71fa 89bc
00000200: a7b7 243c 81af 8a3c 9a93 69bc f9fe 943c
00000210: df08 2d3b 5d9d aabb a81f 30bc cd52 72bc
00000220: 66d3 7a3c b9e3 e13a 364c 9f3c 4d8f 33bc
00000230: c4d8 913c 3328 413c 25f9 903c 4319 4c3c
00000240: 9679 233c ba9a 3dbc 6dca 39bc 4acb 913c
00000250: 450c 59bc 83dc 663c a9b6 59bc de0a 8c3c
00000260: 529c 97bb b41d f53b 50dc d9bb 3822 92bc
00000270: 9431 863c 8fc3 e73b bc45 1cbc d1e4 9b3c
00000280: 923d 8cbc 4675 71bc 1dbc 8bbc 5681 023c
00000290: 5670 073c ff2f 4d3c a17c 693c f891 8fbc
000002a0: 95d8 15bc 1b68 57bc 1d30 9e3c bcf6 653c
000002b0: b38c 1bbc 6791 85bc bb86 39bc bef9 12bc
000002c0: 03a2 38bc ae95 70bc ad4c 243c e391 313c
000002d0: ff90 1ebc 489b 863c 7032 51bc 901f 693c
000002e0: 4903 65bc aebe 063c 1ed4 8c3c a24f 8bbc
000002f0: 29bc 88bc 7300 8bbc 19cf 7c3c 4fa7 983c
00000300: 7fd1 063c 0e96 1e3c d683 6d3c 3ddb 1fbc
00000310: 1c37 84bb 7c5a 30bc 67b7 9f3c 8add 3abc
00000320: 12bf 903c 7ed0 e7bb c86a 77bc 25c4 833c
00000330: 1b48 07bc d71e 213c f8f4 093b cda3 12bc
00000340: 0637 8f3c e9b1 94bc 055b 70bc 5d27 2abc
00000350: 48c4 f93a e87f 3ebc 41b7 36bc cc40 78bc
00000360: 4a97 01bc 94ff 9dbc ec26 363c b76b 0d3c
00000370: 55ee 91bc 5ee9 2abc b185 873c fdaf 14bc
00000380: 50fe 9a3c 15df 1a3c 8429 11bc 8727 67bc
00000390: 178d 83bc dcb8 153c 0413 3d3c dfb1 29bc
000003a0: 721f 783c ae80 8dbc ebf6 813c f503 4fbc
000003b0: 388a 993c 0cee 873c 126e 1f3c e64d beba
000003c0: 422a 66bc 52ff 67bb d3b5 703c 4162 87bc
000003d0: b6aa 2dbc 300f 27bc 9019 993c 2499 78bc
000003e0: 2b18 3b3a 2601 25bc 3aee 293c 97a8 1ebc
000003f0: d314 5cbc 0b97 48bc 9806 433c af46 923c

layer1.weight f4 [3, 15701]
-0.06282661 -0.061121807 -0.06604313 -0.055790912 0.05183953 0.05848438 -0.056219332 0.056302544
0.063520715 -0.057986405 0.06336558 -0.05387282 -0.06251645 -0.05609203 0.055540495 -0.05649163
-0.063163124 -0.055299584 0.06060449 0.055870414 -0.06290783 -0.05692828 0.06643928 0.06282334
0.05822284 -0.05938074 -0.05443351 -0.0645395 -0.056339905 0.05634875 0.06361047 0.05614673
0.059387848 -0.056298148 -0.053508647 0.057820458 0.066274054 -0.065744184 -0.060417015 0.051034085
0.05965434 -0.056728795 0.055762853 -0.055678718 0.057699617 0.052058313 -0.052866258 -0.05407255
-0.054958526 -0.052627776 -0.056058913 -0.05475039 -0.052371025 0.05738541 -0.0652174 0.055068195
-0.060058806 -0.059870493 -0.059047613 -0.054419126 0.06154576 -0.06489124 -0.061390962 0.057115763
0.06384981 0.05609823 -0.062332436 -0.060276404 0.05696258 0.05702783 0.051184274 0.066104
0.06324061 0.055217206 0.053973462 -0.058715794 -0.054446466 0.0532663 -0.062007517 -0.05565547
-0.06414047 -0.059882086 0.052975237 0.06639556 0.06329521 -0.066369936 -0.06339917 -0.056164466
0.05943074 -0.05687647 -0.06552082 0.0547202 -0.05537244 -0.06507771 -0.060660936 -0.055483848
0.06313442 0.059489448 -0.056680046 0.06254369 -0.059925903 -0.061171018 -0.052898575 -0.05121279
0.06268973 -0.062482186 -0.065935485 0.051113665 -0.058938403 -0.062055007 -0.061000783 0.057870686
-0.05144614 -0.05142186 -0.059739478 0.056596972 -0.055117693 0.058356494 0.051399972 -0.05639203
-0.051353294 -0.06531877 0.057269983 0.060724176 0.052494794 0.05216041 -0.053019118 -0.061819483
0.06364862 -0.05828002 -0.057046328 0.053674646 -0.060697913 -0.05372885 0.06265388 0.056686033
-0.058011223 -0.052883405 -0.06598597 0.06411964 0.05659439 0.05736963 0.06279117 -0.06562311
-0.060199145 0.0666199 0.061865672 -0.061933 0.057254583 0.06528717 0.062007338 -0.053583764
0.053854253 -0.056687932 0.060420167 -0.057601854 0.0664038 -0.054565728 -0.05349216 -0.055489335
-0.05563887 0.057597887 -0.066036776 0.052251264 -0.063962884 -0.064160064 0.062749274 -0.056522775
0.05671792 -0.065072685 -0.051134903 -0.052996043 0.06278898 -0.051094092 -0.063242525 0.054447882
0.054321423 -0.059379376 0.05194853 -0.052675813 -0.058788154 0.06296752 -0.06337626 -0.059815586
-0.057942986 -0.061177637 -0.05146035 0.055346243 0.061470482 -0.06440823 -0.05993811 -0.061110564
-0.055550247 -0.053418316 -0.05705247 0.0582645 0.0569492 0.06525038 -0.060879264 -0.053231675
0.055442404 -0.052416194 -0.05104148 -0.053522207 0.06357046 0.061963987 -0.06291682 0.059088025
-0.05624538 -0.06106339 -0.05756247 -0.05431938 -0.066387914 -0.066257544 0.054215573 -0.058019914
-0.060471516 0.06071309 0.057095658 0.05376823 0.060052417 -0.053588446 0.054201666 0.06598868
-0.05702687 -0.051123958 0.051678643 -0.06663274 -0.056285888 0.05154823 -0.06552937 0.06305099
0.0628675 -0.066265464 -0.053248707 0.057441685 0.06491779 -0.063676246 0.051405 -0.06428407
0.057756007 -0.06696003 -0.05953731 0.055010132 -0.06085108 -0.058994714 -0.058536444 0.051186964
0.06309783 0.05410187 0.06385703 -0.051680755 -0.061654534 -0.05809763 -0.054588288 -0.05962585
00000000: 3dab 80bd dc5a 7abd 9f41 87bd 0385 64bd
00000010: b055 543d 518d 6f3d 3e46 66bd 7f9d 663d
00000020: 2617 823d 2783 6dbd d0c5 813d bfa9 5cbd
00000030: a008 80bd c2c0 65bd 6e7e 633d c463 67bd
00000040: ab5b 81bd d181 62bd 6a3c 783d 60d8 643d
00000050: d2d5 80bd a12d 69bd 5111 883d 86a9 803d
00000060: 137b 6e3d 3839 73bd acf5 5ebd 492d 84bd
00000070: acc4 66bd f2cd 663d 3546 823d 1dfa 653d
00000080: ac40 733d e398 66bd e22b 5bbd 25d5 6c3d
00000090: b1ba 873d e3a4 86bd d577 77bd 1e09 513d
000000a0: 1c58 743d 745c 68bd 9767 643d 5e0f 64bd
000000b0: 6f56 6c3d 193b 553d 4a8a 58bd 2e7b 5dbd
000000c0: 311c 61bd 3990 57bd 089e 65bd f241 60bd
000000d0: 0083 56bd f70c 6b3d b390 85bd 308f 613d
000000e0: 3900 76bd c33a 75bd e9db 71bd 97e6 5ebd
000000f0: 6817 7c3d b3e5 84bd 1775 7bbd 38f2 693d
00000100: b0c3 823d 42c7 653d 4c50 7fbd 64e4 76bd
00000110: 9851 693d 0496 693d 9aa6 513d 8961 873d
00000120: 4b84 813d 702b 623d 4713 5d3d f97f 70bd
00000130: 4203 5fbd c42d 5a3d 98fb 7dbd fdf6 63bd
00000140: 145c 83bd eb46 75bd 90fc 583d 65fa 873d
00000150: eba0 813d f6ec 87bd 6dd7 81bd b60c 66bd
00000160: a66d 733d 4df7 68bd c82f 86bd 4a22 603d
00000170: 36ce 62bd 7647 85bd 9a77 78bd 0843 63bd
00000180: 9e4c 813d 35ab 733d 5629 68bd e816 803d
00000190: dd74 75bd 768e 7abd 2dac 58bd 81c4 51bd
000001a0: 7963 803d 52ed 7fbd 2f09 87bd 905c 513d
000001b0: 6569 71bd 642d 7ebd f5db 79bd d009 6d3d
000001c0: 30b9 52bd ba9f 52bd 62b1 74bd 3ad2 673d
000001d0: 17c3 61bd 3807 6f3d c788 523d 54fb 66bd
000001e0: d557 52bd d9c5 85bd ee93 6a3d eab9 783d
000001f0: c804 573d 27a6 553d 932a 59bd 6d36 7dbd
00000200: 355a 823d 08b7 6ebd 69a9 69bd f2d9 5b3d
00000210: 609e 78bd c812 5cbd ad50 803d 9d2f 683d
00000220: 2d9d 6dbd 459c 58bd a723 87bd 2851 833d
00000230: 85cf 673d 6bfc 6a3d a898 803d 6965 86bd
00000240: 6193 76bd 0470 883d dc66 7d3d 75ad 7dbd
00000250: c883 6a3d 48b5 853d 68fb 7d3d a67a 5bbd
00000260: 4796 5c3d 9b31 68bd 237b 773d ecef 6bbd
00000270: b7fe 873d 5080 5fbd 981a 5bbd c948 63bd
00000280: 95e5 63bd c3eb 6b3d 4a3e 87bd 6c05 563d
00000290: f9fe 82bd 5a66 83bd b182 803d 6d84 67bd
000002a0: 0d51 683d d444 85bd d572 51bd 6112 59bd
000002b0: 8297 803d 0a48 51bd 4c85 81bd be04 5f3d
000002c0: 2480 5e3d ca37 73bd fbc7 543d 98c2 57bd
000002d0: d9cb 70bd 1df5 803d 6acb 81bd 3001 75bd
000002e0: a055 6dbd 6795 7abd 17c8 52bd beb2 623d
000002f0: 79c8 7b3d 76e8 83bd aa81 75bd 124f 7abd
00000300: a888 63bd 2acd 5abd daaf 69bd c2a6 6e3d
00000310: 9043 693d fea1 853d 895c 79bd 7509 5abd
00000320: 9317 633d 5db2 56bd df10 51bd 1a3a 5bbd
00000330: 3b31 823d f3cd 7d3d 89da 80bd 4906 723d
00000340: 8e61 66bd 9b1d 7abd a0c6 6bbd 007e 5ebd
00000350: 63f6 87bd 09b2 87bd 2611 5e3d 4aa6 6dbd
00000360: fbb0 77bd 4aae 783d 23dd 693d 133c 5c3d
00000370: 86f9 753d 8f7f 5bbd 9102 5e3d 1325 873d
00000380: 0295 69bd 5b67 51bd fcac 533d bf76 88bd
00000390: 088c 66bd 3d24 533d 4334 86bd e120 813d
000003a0: adc0 803d 30b6 87bd 511b 5abd f947 6b3d
000003b0: 9ef3 843d b168 82bd 0d8e 523d 5ea7 83bd
000003c0: 9091 6c3d 5722 89bd 65dd 73bd 4e52 613d
000003d0: fb3e 79bd 71a4 71bd e9c3 6fbd 6ca9 513d
000003e0: 6f39 813d ec99 5d3d 79c7 823d 33af 53bd
000003f0: 7789 7cbd c8f7 6dbd f897 5fbd 3c3a 74bd

layer1.bias f4 [3]
-0.061662994 -0.017110644 -0.04813526
00000000: 5692 7cbd 9f2b 8cbc 7a29 45bd

layer2.weight f4 [3, 3]
0.07596011 -0.565335 -0.093105644 -0.036775883 0.3256415 0.29462317 0.18920119 0.1330202
-0.18667239
00000000: f990 9b3d cbb9 10bf 2cae bebd 4fa2 16bd
00000010: 7cba a63e d9d8 963e f5bd 413e 7336 083e
00000020: 0c27 3fbe

layer2.bias f4 [3]
-0.12966122 0.22629166 0.3813267
00000000: e9c5 04be 00b9 673e 413d c33e
