trained_models/learnt_optimizer_LSTM.pt (torch, 650046 bytes, 32 tensors)

x0 f4 [1, 3]
0	0x3b4c43f5	0.0031168435
1	0xbc24e114	-0.010063428
2	0xbaa0f8f4	-0.0012281225

X f4 [9, 9]
0	0xbb357cb7	-0.0027692744
1	0x3c06ac6c	0.0082198195
2	0x3c14b7ac	0.009076994
3	0x398605e6	0.00025562866
4	0x3b0f4416	0.002186065
5	0x3b4742a2	0.0030404706
6	0xbc10128e	-0.008793486
7	0xbbdd02ac	-0.0067447033
8	0x3cc33d89	0.023833053
9	0xbbd481f8	-0.00648522
10	0xbb64ef0a	-0.0034932517
11	0x3c808e69	0.015692906
12	0x3ac82761	0.0015270525
13	0x36da6099	6.5081517e-06
14	0xba813202	-0.0009856822
15	0xbc7abbe7	-0.0153035885
16	0x3a8dcd33	0.00108186
17	0xbbb96473	-0.0056577264
18	0x3b982dcf	0.0046441327
19	0x3b41326e	0.0029479521
20	0xbc040e46	-0.008060044
21	0x3bdfb30e	0.006826765
22	0xbb96b451	-0.004599132
23	0xbc1b3525	-0.00947312
24	0x3b5df1c0	0.0033866018
25	0xbb2ab5de	-0.0026048343
26	0x39685ffb	0.00022161
27	0xbbbf492b	-0.0058375797
28	0xbc24e502	-0.010064365
29	0x3c2c289c	0.010507729
30	0xb840275b	-4.581302e-05
31	0x3bd9304e	0.006628073
32	0x3c79c3ca	0.015244434
33	0xbcf87d85	-0.03033329
34	0x3b80b873	0.003928238
35	0xbc344ea9	-0.011005082
36	0x3c87a8c5	0.016559968
37	0xbb33926f	-0.0027400514
38	0x3bd57567	0.0065142396
39	0xbc2125c8	-0.009835668
40	0x3b57ed01	0.0032947662
41	0xbc1fac35	-0.009745647
42	0x3bff98b0	0.007800184
43	0xbc3734b0	-0.011181995
44	0x3bc49da6	0.0060002385
45	0x3b8e5ccd	0.004344559
46	0x3b8a3f26	0.0042189537
47	0x3ab1d654	0.0013567903
48	0xba454c13	-0.00075262896
49	0x3c1c59bc	0.009542879
50	0xbc14ca19	-0.009081387
51	0x3b6c238b	0.0036031927
52	0x3afd73a9	0.0019336838
53	0x3bc48e59	0.0059984145
54	0x3b2b23a1	0.0026113766
55	0x3bb7ffc6	0.0056152074
56	0xbaa7fdc7	-0.001281672
57	0x399e6a66	0.0003021538
58	0xbaa4ca4e	-0.0012572499
59	0xba892e6b	-0.0010466104
60	0x3be83a17	0.007087003
61	0xbc3b0bef	-0.011416419
62	0xbc826b96	-0.015920442
63	0xbab25352	-0.0013605154
64	0xbba4b858	-0.0050268583
65	0x3c3d0309	0.011536368
66	0x3adbe946	0.0016777895
67	0xbad859e2	-0.0016506279
68	0xbbea1629	-0.007143755
69	0x3c0b68fc	0.008508917
70	0xbbf5d8d7	-0.007502656
71	0x3c828e4b	0.015936991
72	0xbc4170b9	-0.01180666
73	0xb9ef3158	-0.00045622396
74	0xbcb3091c	-0.02185493
75	0x3c15fe2d	0.0091548385
76	0xba248a97	-0.0006276755
77	0xbbe2e20f	-0.006923921
78	0x3c9a5f41	0.018844249
79	0xba665f4e	-0.0008788005
80	0x3be0e470	0.0068631694

Y f4 [3, 3]
0	0xbbb39b8d	-0.0054811896
1	0xbb6fe8bb	-0.0036607224
2	0x3b33b53d	0.002742126
3	0x3c54a42b	0.012978594
4	0xbc1c53f7	-0.009541503
5	0xbc78eea0	-0.015193611
6	0x3b80ecf8	0.003934499
7	0xbb245f0d	-0.0025081069
8	0xbc36cd95	-0.011157413

x3 f4 [28, 28]
0	0xbc9aff29	-0.018920498
1	0x3c33a69c	0.010965016
2	0xbc2af04f	-0.010433271
3	0x3c36bd7e	0.011153577
4	0x3c1c1379	0.009526127
5	0xbc0ed5e8	-0.008717991
6	0xbc26db09	-0.010184058
7	0x3b99ce67	0.0046937945
8	0x3bce6417	0.0062985527
9	0x3c0711f3	0.0082440255
10	0x3b602506	0.0034201755
11	0x3c42723e	0.011868058
12	0x3b8cd63d	0.004298
13	0x3b3da046	0.0028934642
14	0x3b3d244e	0.002886075
15	0xbc44f28f	-0.012020721
16	0x3a9ebacd	0.0012110114
17	0xba875228	-0.0010324167
18	0x3b909c3c	0.004413156
19	0xbbd78c3c	-0.0065779965
20	0xbbefddf2	-0.007320159
21	0xbcca76c0	-0.024714828
22	0x3c1e55f3	0.009664047
23	0xbb97314d	-0.0046140314
24	0x3c5a956c	0.013341289
25	0x3bb2c0c0	0.0054551065
26	0x3c5fa89b	0.0136510385
27	0xbbbbf385	-0.005735817
28	0x3bd7b175	0.006582434
29	0xbbe04810	-0.006844528
30	0x3bd17d67	0.006393123
31	0x3c1b0614	0.009461898
32	0xbc2074be	-0.0097934585
33	0xbc07c5e2	-0.008286925
34	0x3cb12b87	0.0216272
35	0x3a8d9968	0.0010803165
36	0xbb30a2e2	-0.0026952554
37	0x3c145cdd	0.009055343
38	0xbce3b3e6	-0.027795743
39	0xbbf86de1	-0.007581458
40	0xbb007bc7	-0.0019605027
41	0xbbbc52e5	-0.0057471865
42	0xbb00377a	-0.0019564317
43	0xbca61ca4	-0.020277329
44	0x3c182dae	0.009288235
45	0x3bda0d15	0.0066543915
46	0x3bb662ef	0.005565993
47	0x3b84f676	0.0040577007
48	0xbb3fa6d9	-0.0029243736
49	0xbbe5361d	-0.006994976
50	0x3b7526ee	0.0037407237
51	0xbc28cf89	-0.0103033865
52	0xbc29baa2	-0.010359438
53	0xbb3c4a61	-0.0028730857
54	0x3b2d836a	0.0026476034
55	0xbb299bad	-0.0025880144
56	0x37b18db7	2.1166035e-05
57	0x3c548524	0.012971196
58	0x3c692789	0.014230617
59	0x3bcf61ec	0.006328812
60	0xbbbb9eb5	-0.0057257065
61	0xbc29a7de	-0.010354964
62	0xbb8dcf90	-0.004327722
63	0xbc014086	-0.007888919
64	0x3bfe782c	0.0077657904
65	0x3abd93f7	0.0014463653
66	0xbb43415b	-0.0029793594
67	0x3b5d0e35	0.0033730392
68	0x3c0f2918	0.008737825
69	0xbc1a718c	-0.009426486
70	0x3a82e0ed	0.0009985246
71	0x3c081cb2	0.008307623
72	0xbc4b5d99	-0.012412452
73	0xbbe13473	-0.0068727075
74	0xbb6da621	-0.003626235
75	0xbabc1ef2	-0.0014352484
76	0xbb8af9f7	-0.004241224
77	0xb9a08330	-0.0003061532
78	0xba6e1a38	-0.00090828864
79	0xbae4ce3d	-0.0017456483
80	0x3c4bae67	0.0124317175
81	0xbb9f1fde	-0.004856094
82	0x3b7750fe	0.0037737484
83	0x3c1ad57d	0.009450314
84	0xba3a14d2	-0.00070984394
85	0xbc18763f	-0.009305536
86	0x3c586762	0.013208242
87	0x3c6dd975	0.014517178
88	0xbc06f3b4	-0.008236814
89	0x3c528bc6	0.012850707
90	0xbadc58b2	-0.0016811101
91	0xbcab8bcb	-0.020940682
92	0x3bd5121e	0.006502404
93	0x3c821680	0.01587987
94	0x39c41a8d	0.00037403815
95	0xbba72590	-0.0051009133
96	0x3bd40007	0.00646973
97	0x3a8dbcca	0.001081371
98	0xbcc0d0a5	-0.02353699
99	0xbc4fe302	-0.0126884
100	0xbcb24c52	-0.021764908
101	0xbbaec17d	-0.005333124
102	0x3bdaba9d	0.006675078
103	0xbb894d17	-0.004190098
104	0xbc7c7818	-0.015409492
105	0xbc95093d	-0.018192882
106	0x396baabd	0.00022474951
107	0xbc2af7bd	-0.010435042
108	0xbaa90a34	-0.0012896718
109	0x3b49d934	0.003079963
110	0xbb06df8a	-0.0020580017
111	0xbc48f39d	-0.012265113
112	0xbc8b128d	-0.01697662
113	0xba59764a	-0.00082955195
114	0x3c4ff4f8	0.012692682
115	0x3bcf0225	0.0063173943
116	0x3c0f3e17	0.008742831
117	0xbc507a0f	-0.012724414
118	0x399ad1c0	0.00029529445
119	0xbae7667e	-0.0017654446
120	0xbadf351c	-0.0017029378
121	0xbc1526cf	-0.009103491
122	0x3c6c6e6b	0.014430623
123	0x3c23b757	0.009992442
124	0x3cce71a9	0.025200682
125	0xbc0dd663	-0.008657071
126	0x3bb64bcf	0.0055632363
127	0x3b712ef0	0.0036801659
128	0xbbe27a59	-0.0069115576
129	0x3c36e0a5	0.011161958
130	0x3c37fbd7	0.011229477
131	0xbb2a5260	-0.002598904
132	0x3c31df45	0.010856454
133	0x3c37daaf	0.011221572
134	0xbc08ab8f	-0.008341684
135	0xbc9b26d1	-0.018939408
136	0x3b9aeddd	0.0047280625
137	0x3ca47e67	0.020079805
138	0xbc016b5e	-0.0078991335
139	0x3bccb218	0.0062468164
140	0x3be7a37b	0.007069049
141	0xbb4f580e	-0.0031638178
142	0x3c192aef	0.009348615
143	0x3c0beee4	0.008540843
144	0xbc22649e	-0.009911684
145	0xb935a78b	-0.0001732392
146	0xbc15b342	-0.009136977
147	0x3becab7e	0.007222592
148	0xbc04aa30	-0.0080972165
149	0xbc110528	-0.008851327
150	0xbc306b96	-0.010767838
151	0xbaf19e6f	-0.0018434058
152	0x3b421b89	0.0029618463
153	0x3b9b54cb	0.0047403327
154	0x3c021cbb	0.00794142
155	0xbbfebad5	-0.007773737
156	0x3bc2480e	0.0059289997
157	0x3cdd4164	0.02700872
158	0xbb950000	-0.004547119
159	0xbb9fc725	-0.004876035
160	0x3be356d7	0.0069378424
161	0x3c1846a4	0.009294186
162	0x3adf5075	0.0017037528
163	0xba2f6509	-0.00066907756
164	0xbcaf81d8	-0.021424219
165	0x3b387bd2	0.0028149975
166	0xbc9e8e46	-0.01935495
167	0xbc54974b	-0.012975524
168	0xbcda818e	-0.026673105
169	0x3bee32c3	0.007269235
170	0x3bc1e034	0.0059166197
171	0xbc6d9a4e	-0.014502121
172	0xbbb0c409	-0.005394463
173	0xbbb0aa9c	-0.005391432
174	0x3b27e2b6	0.0025617308
175	0x3ae84330	0.0017720219
176	0x3aaac3d0	0.0013028327
177	0xbc9511e4	-0.018197007
178	0xbc269c14	-0.010169048
179	0x3c808deb	0.015692672
180	0xbcb20be0	-0.021734178
181	0xba80055f	-0.0009767226
182	0x3c1fd42d	0.0097551765
183	0xbc2ba990	-0.010477439
184	0x3c8191b3	0.015816545
185	0xbb4e7a38	-0.0031505954
186	0xbbe8b8cf	-0.007102109
187	0xbb96b4bb	-0.0045991815
188	0xbc412d2a	-0.011790553
189	0xbb92108d	-0.0044575394
190	0xbc84b102	-0.016197685
191	0xbbb20d58	-0.0054337196
192	0xb904d3cc	-0.00012667401
193	0x3981f8c7	0.0002479015
194	0x3b81a7ca	0.0039567696
195	0xba957069	-0.0011401299
196	0xbad81c95	-0.001648801
197	0xbb1306e5	-0.002243453
198	0x3a5438f8	0.0008095647
199	0xbc0d067f	-0.008607506
200	0xbb5a6a26	-0.003332743
201	0x3c386e25	0.011256729
202	0xbb4e40f3	-0.0031471818
203	0x3bfa9183	0.007646741
204	0xbb819865	-0.0039549344
205	0x3c1801e6	0.009277796
206	0x3c02642c	0.007958453
207	0xbb934d89	-0.004495327
208	0xbc120830	-0.008913085
209	0xbb6c8af5	-0.0036093567
210	0x3bc18b09	0.005906467
211	0xba20b171	-0.00061299565
212	0x3b5e4a01	0.0033918621
213	0x3bf35ebc	0.0074270647
214	0x3a110bd4	0.00055330736
215	0xbc9a139d	-0.01880818
216	0xbc54015e	-0.012939779
217	0x3c0228b2	0.007944273
218	0xbac3d667	-0.0014941216
219	0x3c12ee28	0.008967914
220	0xbbafbbbb	-0.0053629554
221	0x3b02f3df	0.0019981784
222	0x3b09cadd	0.0021025457
223	0x3c1a1954	0.009405453
224	0x3c2e73e6	0.0106477495
225	0x3b0a76cf	0.0021127944
226	0x3c6e17c0	0.01453203
227	0x3ba2fb43	0.0049738004
228	0xbabfecfe	-0.0014642773
229	0xbccd534f	-0.025064139
230	0x3bd2eb6f	0.0064367573
231	0x3ccd58f9	0.02506684
232	0x3bda2c13	0.006658086
233	0x3befc62e	0.007317326
234	0xbc717973	-0.014738428
235	0xba967267	-0.0011478186
236	0xbc6bc227	-0.014389551
237	0x3cd2c1a2	0.025727097
238	0x3ba64810	0.0050745085
239	0xbc47875d	-0.012178269
240	0x3b0bf6c0	0.0021356791
241	0xbc42b338	-0.011883549
242	0xbbd49247	-0.006487164
243	0x3a191825	0.00058400846
244	0xbb4bae09	-0.0031079075
245	0x3ad0cbfb	0.0015929932
246	0xbc27c816	-0.010240575
247	0xba6d95d7	-0.00090631604
248	0xbaf48981	-0.0018656702
249	0xbc7dadf0	-0.015483364
250	0x3c88a139	0.01667844
251	0xb9e39002	-0.00043404108
252	0xbc4bacaf	-0.012431308
253	0xba4aa6e6	-0.0007730558
254	0x3a85d7ad	0.0010211371
255	0xbb9c95e2	-0.0047786096

y3 f4 [28, 28]
0	0xbc407c41	-0.011748374
1	0x3b7a9501	0.0038235786
2	0x396cb2e6	0.00022573359
3	0x3be5a7b3	0.0070085167
4	0x3c74072b	0.014894287
5	0x3b9f5143	0.004861982
6	0xbc2779f0	-0.010221943
7	0xbaf20717	-0.0018465248
8	0xbba57996	-0.0050498946
9	0xbcc024bc	-0.023455016
10	0x3bd0528f	0.006357498
11	0x3c4335fb	0.011914725
12	0xbb4f6679	-0.0031646772
13	0x3cc450f5	0.023964385
14	0xbb9f19c4	-0.0048553664
15	0x3b456f05	0.0030125987
16	0xbc36bf4d	-0.011154008
17	0x3c03fd2d	0.008055967
18	0xbc0c3506	-0.008557564
19	0x3c84e59d	0.01622277
20	0xb9984bcb	-0.0002904817
21	0x3b8b4e9e	0.0042513153
22	0x3c63302f	0.013866468
23	0x3a8dd2c0	0.0010820255
24	0x3caa2d25	0.02077348
25	0x3c6bd2a3	0.014393481
26	0xbb25fa8d	-0.0025326342
27	0xbc4d9c79	-0.012549513
28	0x3a63e37e	0.0008693262
29	0xb9e5c606	-0.00043825823
30	0xbc6d355d	-0.014478055
31	0x3be91d45	0.007114085
32	0xbb5dece0	-0.0033863112
33	0xbc61a59c	-0.0137723945
34	0xbc8b42df	-0.01699966
35	0x3c1b0f96	0.009464165
36	0x3c7e658e	0.015527142
37	0xbb942df5	-0.00452208
38	0xbb4c6262	-0.003118657
39	0xbb81a675	-0.003956611
40	0x3ba10615	0.004914055
41	0x3cac9dfe	0.02107143
42	0x3b5fa350	0.0034124441
43	0xbc06ef94	-0.008235831
44	0x3c106a2d	0.008814377
45	0x3b8b7bbf	0.004256695
46	0x3c0447fa	0.008073801
47	0x3b85a7c3	0.0040788366
48	0x3cc91bfc	0.024549477
49	0xbbf24bd2	-0.0073942924
50	0x3c8ca3fe	0.017168041
51	0x3b23a01f	0.0024967266
52	0xbb8cce4c	-0.0042970534
53	0xbaedb247	-0.0018134796
54	0xba19a4b8	-0.0005861032
55	0xbc971a3e	-0.01844513
56	0xbb185b2d	-0.0023247704
57	0x3c4f3ee7	0.012649274
58	0x3c8c6426	0.017137598
59	0xb928b921	-0.00016090694
60	0x3a6ed713	0.0009111028
61	0x3c27650a	0.010216961
62	0xbc6c05ee	-0.014405711
63	0x3880c8a6	6.140889e-05
64	0x3c1e221f	0.00965169
65	0x3c47b0a6	0.012188112
66	0xbc4cd693	-0.01250233
67	0xbccd9677	-0.025096161
68	0x3bd76cec	0.006574264
69	0xbbd09814	-0.0063657854
70	0xbb29a6b0	-0.0025886707
71	0x3b888e94	0.0041673873
72	0xbb99ad7a	-0.0046898695
73	0xbb9c1ebb	-0.0047644055
74	0xbca4b47e	-0.020105597
75	0x3bcf4c2c	0.006326219
76	0xbc32d724	-0.010915551
77	0xbb7fe8a2	-0.0039048572
78	0xbc789170	-0.015171394
79	0xba9ebc0d	-0.0012110487
80	0x3c6ce79b	0.014459516
81	0x3b396faf	0.0028295328
82	0x3c587274	0.0132108815
83	0x3c51e913	0.012811917
84	0x3c73f9aa	0.0148910675
85	0xbb4ba26f	-0.003107216
86	0x3c0b446a	0.008500198
87	0x3a8b4161	0.0010624343
88	0x3ba66dd7	0.005079012
89	0xbbb26644	-0.00544432
90	0x3c365ad0	0.01113005
91	0x3cda60d8	0.026657507
92	0x3b8ead26	0.004354137
93	0xbb2d89cb	-0.0026479836
94	0x3bfa56d0	0.0076397434
95	0xbc05acbc	-0.008158859
96	0x3baed11e	0.0053349873
97	0xbc413897	-0.011793277
98	0xbc1ffd60	-0.009764999
99	0x3b8868a7	0.004162866
100	0x3a3b431c	0.0007143484
101	0x3bd9d69d	0.0066478983
102	0x3be44790	0.0069665387
103	0x3c6987e9	0.014253595
104	0xbc60f3d2	-0.013730006
105	0xbc1555c0	-0.009114683
106	0xbb1f2f46	-0.0024289652
107	0xbc1cc12b	-0.009567539
108	0x3c0a337c	0.008435126
109	0xbc2b6113	-0.010460156
110	0x3b7e78b8	0.0038829278
111	0xbbadc932	-0.0053035254
112	0xbc43ee30	-0.011958644
113	0xbbf06b5b	-0.0073370165
114	0xbc12a1d6	-0.0089497175
115	0x3c46ae22	0.012126477
116	0x3c2af4eb	0.01043437
117	0xbc827206	-0.015923511
118	0x3b48e31d	0.0030652948
119	0xb717f30a	-9.056888e-06
120	0x3c4ac6e0	0.012376517
121	0x3c10f76f	0.008848055
122	0xbacf721b	-0.0015826853
123	0x3beb762a	0.007185717
124	0x3c9119e6	0.017712545
125	0xbaf523a9	-0.0018702644
126	0xbab7174e	-0.0013968737
127	0x3c4160ef	0.011802896
128	0xbc2292c9	-0.009922692
129	0xbc1de1b3	-0.00963633
130	0x347dc39c	2.3633623e-07
131	0xbaa376c5	-0.0012471309
132	0x3c19793c	0.009367283
133	0x3ad14b79	0.0015967927
134	0xb9a7ce49	-0.00032006417
135	0xbc256bb2	-0.010096477
136	0x3c528469	0.012848952
137	0x3bb6f7a9	0.0055837226
138	0x3b0afce4	0.0021207863
139	0x3d05e1cb	0.032686036
140	0x3c385f87	0.011253244
141	0x3bff471b	0.007790459
142	0xbc90d5b9	-0.017680036
143	0xbb7506d2	-0.0037388098
144	0x3bdea46f	0.0067945044
145	0xbb9c7e56	-0.0047758026
146	0x3c1752b4	0.009236027
147	0xbab2a525	-0.0013629539
148	0x3c3b6be4	0.011439297
149	0xbc055529	-0.00813798
150	0xbbc16633	-0.0059020757
151	0xbc26c7c5	-0.010179465
152	0x3c8fab22	0.017537657
153	0xbbc1917d	-0.005907236
154	0x3b40cdcb	0.0029419537
155	0xbb458c69	-0.0030143505
156	0xbb889275	-0.0041678497
157	0xbb83b0af	-0.004018865
158	0xbc2ebabb	-0.010664637
159	0x3aa8b2fc	0.0012870724
160	0xba6197bb	-0.00086056784
161	0x3bd69219	0.006548178
162	0xbb0d0a58	-0.0021521058
163	0xbbc85077	-0.006113108
164	0x3b5e0da6	0.0033882647
165	0x3bdcf0b9	0.0067425636
166	0x3c88090b	0.016605875
167	0x3c3feb10	0.011713758
168	0xbc6757b4	-0.014120031
169	0x3bdbf2b8	0.006712284
170	0x3c7fb0ef	0.015606149
171	0x3b41e58b	0.002958628
172	0xbc94ec2b	-0.01817902
173	0x3c5283fb	0.012848849
174	0x3c02490d	0.007951987
175	0x3c3cf5a6	0.0115331765
176	0x3c1a9f82	0.009437444
177	0xbc1b3b59	-0.009474599
178	0x3bb89bc6	0.005633804
179	0xbc0a5b09	-0.008444556
180	0xbbd530db	-0.006506068
181	0x3a539974	0.00080718775
182	0xbbed9173	-0.007250005
183	0xbc987640	-0.018611073
184	0x3c43e4c0	0.011956394
185	0xb8bce83e	-9.007797e-05
186	0xbbd3065c	-0.006439967
187	0xbbc569d4	-0.0060245786
188	0x3c8244ec	0.015902005
189	0xbc7722f4	-0.015084017
190	0xbbc27192	-0.005933949
191	0xbc160849	-0.009157249
192	0x3c86e594	0.016466893
193	0xbca3e336	-0.020005804
194	0xbc391fd0	-0.011299089
195	0x3ba7e9b9	0.0051242975
196	0x3bea9a59	0.007159513
197	0xbbe1f6d7	-0.0068958807
198	0x3b4d6f72	0.0031346944
199	0xbc8fb500	-0.017542362
200	0xbc7872d3	-0.015164095
201	0xba439b8e	-0.0007461839
202	0x3c7a6f3b	0.0152853085
203	0xbb587b9b	-0.003303266
204	0x3a49bdd5	0.00076958287
205	0x3be6661c	0.0070312154
206	0x3bc1932d	0.0059074373
207	0x3b77c600	0.0037807226
208	0xbb4fc2d9	-0.0031701832
209	0xbbc5429b	-0.006019903
210	0xbc19ecc5	-0.009394829
211	0x3b27e2e5	0.0025617417
212	0x3c5bbf53	0.0134123145
213	0x3a028a3e	0.0004979706
214	0x3b928d49	0.004472409
215	0xbbc89eb3	-0.006122434
216	0xbb93e1bd	-0.004512994
217	0x3c0006c7	0.007814116
218	0xbb0a33dc	-0.002108804
219	0x3c195cf9	0.009360545
220	0xbb7dec95	-0.003874575
221	0xbb71cd4a	-0.0036896043
222	0xbbf1faf8	-0.007384654
223	0x3c6bceaa	0.014392534
224	0xbaac5d8d	-0.0013150439
225	0x3c8706f7	0.016482813
226	0x3c6ed70b	0.014577637
227	0x3c1c680b	0.00954629
228	0x3c013374	0.007885803
229	0xbcd5db1b	-0.026105454
230	0xbb4479e4	-0.002997988
231	0x3c61cafb	0.0137813045
232	0x3b2f2aa2	0.0026728292
233	0x3c67e980	0.014154792
234	0xbaa247b0	-0.0012380984
235	0x3bb91755	0.0056485333
236	0xbc8d03ac	-0.017213665
237	0xbbe74954	-0.007058302
238	0xbc489e50	-0.012244776
239	0xbb0cf410	-0.0021507777
240	0x3c1bd1aa	0.009510437
241	0x3c3f8647	0.011689729
242	0x3b981541	0.0046412055
243	0x3ae25497	0.0017267641
244	0xbb3e899b	-0.0029073718
245	0x3c286d53	0.010279971
246	0x3b79eb49	0.0038134626
247	0xbae13c92	-0.0017184189
248	0x3b38a977	0.002817718
249	0xbc2f7642	-0.010709347
250	0x3c2bd712	0.0104882885
251	0x3b9c8b80	0.004777372
252	0x3c6bbe4a	0.01438863
253	0x3a1515d1	0.000568715
254	0xbc3d7809	-0.011564263
255	0xbbb8c30b	-0.0056384853

x3corner f4 [10, 10]
0	0xbb66fd0b	-0.003524604
1	0xbaaa1fde	-0.0012979468
2	0xbb499570	-0.0030759238
3	0xbc94ad6b	-0.018149098
4	0x3c161fc3	0.009162846
5	0xbb3cf406	-0.0028831973
6	0xbb845a78	-0.004039105
7	0x3aab1b42	0.0013054388
8	0x3c165e50	0.009177759
9	0xbbdf09a9	-0.0068065715
10	0xbc6ddc32	-0.014517831
11	0xb9b62e38	-0.0003474818
12	0xbb1595e7	-0.0022824944
13	0x3b07e338	0.0020734798
14	0xbb8c5d77	-0.004283603
15	0xbb8ba1e9	-0.0042612446
16	0x3c4a8b0f	0.012362256
17	0xbacaca8e	-0.0015471743
18	0x3c747f25	0.014922892
19	0x3c25a1e1	0.010109396
20	0x3c6be685	0.014398222
21	0xbb6a3af4	-0.0035740705
22	0xbbc22b39	-0.0059255627
23	0x3c24641b	0.010033633
24	0x3b472ba6	0.0030391007
25	0x39a2828e	0.0003099632
26	0xbcbc1909	-0.022961156
27	0xbb227aca	-0.0024792426
28	0xbbb4ae4a	-0.005513941
29	0xbb798519	-0.0038073717
30	0x3c3147c5	0.010820334
31	0x3d002527	0.03128543
32	0xbb32cd6a	-0.002728308
33	0x3ce7c0c9	0.02829017
34	0xbb71bde3	-0.0036886863
35	0xbc1e745d	-0.009671298
36	0xbb8f92c4	-0.0043815095
37	0xbaa48284	-0.0012551104
38	0xbc0277b1	-0.007963107
39	0x38c45bab	9.363083e-05
40	0x3baa8099	0.0052033183
41	0xba250f29	-0.00062965095
42	0x3c392882	0.011301162
43	0x3c56e864	0.01311693
44	0xba3879ab	-0.0007037173
45	0xbc41e978	-0.011835448
46	0xbb3bc6a7	-0.0028652342
47	0x3c25bc39	0.010115677
48	0x3c20dbf9	0.009818071
49	0x3b212ace	0.0024592164
50	0x3a9128f1	0.0011074824
51	0xba3a47c9	-0.0007106034
52	0x3c229800	0.009923935
53	0xba13d5b4	-0.0005639449
54	0xbc09f173	-0.008419382
55	0x3c931210	0.017952949
56	0xb8adbbbe	-8.2842525e-05
57	0xbba5ce72	-0.0050600106
58	0x3b771b9b	0.0037705663
59	0x3ba1875e	0.004929467
60	0xbc51c87e	-0.012804149
61	0xbb8ad748	-0.0042370893
62	0x3c001cab	0.007819335
63	0xbc257d37	-0.010100654
64	0xbb4fb9ae	-0.0031696367
65	0x3b89494d	0.0041896463
66	0x3c8d27f7	0.01723097
67	0xbc2f69ae	-0.010706348
68	0xbc0b7018	-0.008510612
69	0x3b16c394	0.0023004757
70	0x3b88242d	0.004154703
71	0x3ad4c11b	0.0016231866
72	0xb995c89b	-0.00028568957
73	0x3c6def41	0.014522375
74	0x3b787174	0.003790942
75	0x3a8b376b	0.0010621374
76	0x3bccf8f7	0.006255265
77	0xbc6da642	-0.014504971
78	0xbbd4ba5d	-0.006491943
79	0xbcc123bd	-0.023576612
80	0xbc43fa0d	-0.011961472
81	0x3c0cfabd	0.008604703
82	0xbc5e8142	-0.013580622
83	0xbba9b506	-0.0051790504
84	0x3b8fdec9	0.0043905717
85	0x3b1ec0ce	0.0024223807
86	0xbbc3c65c	-0.005974574
87	0x3b0e663f	0.0021728424
88	0xbbd6dea4	-0.0065573025
89	0xb8dfeb0a	-0.00010677248
90	0xb9824a79	-0.0002485102
91	0xbc5c8154	-0.013458569
92	0xbb915bd6	-0.0044359965
93	0xbbf99014	-0.0076160524
94	0xbb960b66	-0.0045789955
95	0xbc3b53e1	-0.0114335725
96	0xbcd46c54	-0.025930561
97	0x3c76b857	0.0150585985
98	0x3b68c901	0.0035520198
99	0x3b8593f8	0.004076477

y3corner f4 [10, 10]
0	0xbb873539	-0.0041262177
1	0x3c17aa38	0.009256892
2	0x3ba066ea	0.004895081
3	0xbc3a47f5	-0.011369695
4	0x3c5d1426	0.013493573
5	0xb8068daf	-3.2080043e-05
6	0xbbbcb1a1	-0.0057584797
7	0xbc838fd7	-0.0160598
8	0xbc5604c9	-0.013062664
9	0x3c0a2fc1	0.008434237
10	0xbc305be1	-0.010764093
11	0xbb26223e	-0.002535
12	0x3b1d3470	0.0023987554
13	0xbc76d480	-0.015065312
14	0x3bc67a4e	0.0060570603
15	0xbc417fd5	-0.011810263
16	0x3a28a8d2	0.00064338476
17	0x3bbb4e50	0.0057161227
18	0x3c92cc81	0.01791978
19	0x3b942344	0.0045208056
20	0xbc9b03ab	-0.018922647
21	0x3caa0510	0.020754367
22	0xba98ba69	-0.0011652234
23	0x3b08d9f1	0.0020881856
24	0x3c84b935	0.016201595
25	0xbc34d4b5	-0.011037041
26	0x3b72733b	0.0036994952
27	0xbb98f0b4	-0.004667366
28	0xbc3429f4	-0.0109963305
29	0xbb424e89	-0.0029648861
30	0xbc3a4326	-0.0113685485
31	0xbc47ab13	-0.012186783
32	0xb8d09f2a	-9.9478595e-05
33	0x3a249a62	0.00062791083
34	0x3c6179be	0.013761936
35	0xbb6088b0	-0.003426116
36	0x3bb45901	0.005503774
37	0xbb8287f5	-0.0039834925
38	0xbc1b0447	-0.009461469
39	0xbc8b4980	-0.017002821
40	0x3c0654ae	0.0081989
41	0x3c1845c7	0.00929398
42	0xbb976540	-0.0046202242
43	0xbb0fcadb	-0.002194098
44	0x3b813cf7	0.003944035
45	0x3b01ff20	0.0019835904
46	0x3be8612b	0.0070916614
47	0xb99bfd46	-0.00029752607
48	0x3c0dac57	0.008647046
49	0x3b31e49c	0.0027144318
50	0x3b31640b	0.0027067687
51	0x3b68c4f2	0.003551778
52	0xbc5d9c20	-0.013525993
53	0xbbc30b05	-0.0059522414
54	0xba511206	-0.0007975403
55	0x3af8f419	0.0018993645
56	0x3c150571	0.009095536
57	0xbc5a19cb	-0.013311814
58	0x3cb79026	0.022407603
59	0xbc439ff5	-0.011939992
60	0xbbc004ad	-0.0058599324
61	0x3b8adafd	0.004237531
62	0xbc5999bd	-0.013281283
63	0xbb490080	-0.0030670464
64	0x3b69fa13	0.0035702034
65	0x3b68208e	0.0035419795
66	0xb991ad5f	-0.00027785727
67	0x3b4ba320	0.0031072572
68	0x39a9d2b7	0.00032391187
69	0xbca51f41	-0.020156505
70	0x3b275b7e	0.0025536711
71	0x3c10ae0f	0.008830561
72	0x3c251bed	0.010077459
73	0x3c26e82f	0.010187193
74	0x3ba88629	0.0051429463
75	0x3c6b102f	0.01434712
76	0xbc07f453	-0.0082979975
77	0xbaaf5589	-0.0013376932
78	0x3b8564b1	0.0040708412
79	0x3b542064	0.003236794
80	0xbbfb0dac	-0.007661542
81	0x3bd0395c	0.006354494
82	0x3b8d0566	0.004303622
83	0x3b5489d4	0.0032430785
84	0x3ad4cd85	0.0016235566
85	0xbc342ca0	-0.010996968
86	0xbaa92359	-0.0012904211
87	0xbae3061e	-0.0017320549
88	0xba8d350b	-0.0010773254
89	0xbb926e7a	-0.0044687362
90	0x3ba3b0d9	0.004995447
91	0x3b3d8ef8	0.0028924327
92	0xbbcb8170	-0.0062104985
93	0xbc8dffad	-0.01733383
94	0xbc9cec19	-0.019155549
95	0xbb9524df	-0.0045515145
96	0x3c21c5b3	0.009873795
97	0x3bea4af2	0.0071500475
98	0xbc683c1e	-0.014174489
99	0x3ab5c429	0.0013867664

b2 f4 [3, 28]
0	0x3b4b5f72	0.0031032232
1	0x3b7ef2fc	0.0038902154
2	0xbc17ad82	-0.009257676
3	0xbb1fa37f	-0.0024358926
4	0xbc01f572	-0.007932054
5	0xbb174cee	-0.0023086625
6	0x3ba1d91e	0.0049392125
7	0x3c4ed1b2	0.012623237
8	0x3bd8430e	0.0065997904
9	0x3bfcdfbb	0.0077171004
10	0xbc2a64cb	-0.0104000075
11	0x3c1fcefd	0.00975394
12	0xbbc44084	-0.005989136
13	0xbce3e6c5	-0.02782
14	0xbcdca01b	-0.026931813
15	0xbb6e7a2f	-0.0036388745
16	0xbc3dacb5	-0.011576821
17	0xbc304acd	-0.010760021
18	0x3c8df4fe	0.017328735
19	0xbbd6ee90	-0.0065592006
20	0x3c1bdb76	0.009512773
21	0x3b823556	0.0039736433
22	0xbb54fb78	-0.003249852
23	0x3c39b9f5	0.0113358395
24	0xbc520a0e	-0.01281978
25	0x3c0a1c80	0.0084296465
26	0x3ac6f55c	0.0015179324
27	0xbbf85f29	-0.0075797033
28	0xbb2f5eb2	-0.0026759324
29	0x3c115210	0.008869663
30	0x3abb8a73	0.0014308229
31	0xbbf83760	-0.0075749606
32	0xbb75e6d5	-0.003752162
33	0xbc727f2b	-0.014800827
34	0xbb808152	-0.003921666
35	0xbc47c4ef	-0.012192949
36	0x3c5b7072	0.013393508
37	0xbb387152	-0.0028143716
38	0x3bfa13cb	0.007631754
39	0xbb60e1a2	-0.0034314175
40	0xbc56b5b5	-0.013104846
41	0xbba1a90d	-0.0049334825
42	0xbc539af5	-0.012915363
43	0xbc685c79	-0.014182203
44	0xba22eb25	-0.0006214849
45	0xbb35d870	-0.0027747415
46	0x3bf9b449	0.0076203686
47	0xbc8887fe	-0.016666409
48	0xbb9fac4d	-0.004872835
49	0xbb70ce9b	-0.003674424
50	0xbc095e3f	-0.008384286
51	0x3afa1f02	0.0019082727
52	0xbc19b7c7	-0.009382195
53	0xbc06283f	-0.008188306
54	0xbcd4f113	-0.02599386
55	0x3b99289a	0.0046740295
56	0x3c97df8e	0.018539216
57	0x3c2aabcb	0.010416935
58	0xbc088a60	-0.008333772
59	0x3b796733	0.0038055896
60	0xbca0fa3f	-0.019650577
61	0xbad07581	-0.001590416
62	0xbc383613	-0.011243361
63	0xbc6d1f2b	-0.014472763
64	0xbbc43170	-0.0059873387
65	0x3c0ee533	0.008721638
66	0xbbe8f000	-0.0071086884
67	0x3c111d0d	0.008857024
68	0x3bb57b74	0.0055383984
69	0x3c4e79b7	0.012602261
70	0x3bd0e1eb	0.006374588
71	0xbb1fe3a5	-0.0024397161
72	0x3c6e78f4	0.014555205
73	0x3b1f7ce2	0.002433591
74	0xbc13dd15	-0.009024878
75	0x3be488d5	0.0069743195
76	0xbb143c16	-0.0022618822
77	0xbbb67630	-0.0055682883
78	0xbc0781f2	-0.0082707275
79	0x3c4106d4	0.011781413
80	0x3c9c794d	0.01910081
81	0x3bbb1709	0.005709533
82	0x3b151326	0.002274701
83	0xbc2f06ad	-0.010682744

d12 f4 [3, 28]
0	0x3bedd87e	0.007258474
1	0xbcd6e113	-0.02623037
2	0x3a24c37d	0.00062852335
3	0xbc841fe6	-0.016128492
4	0x3c01aba2	0.007914456
5	0x3ba3c020	0.0049972683
6	0xbb51baaa	-0.003200213
7	0x3be1e937	0.0068942565
8	0x3b8bd03f	0.004266768
9	0xbc24e4ed	-0.010064346
10	0xbb4ac150	-0.0030937977
11	0x3bb18efe	0.0054186573
12	0x3b22cb14	0.0024840282
13	0xbaa15d8e	-0.0012311207
14	0xbc534455	-0.01289471
15	0xbb146529	-0.0022643304
16	0xbb67edfb	-0.003538965
17	0x3b99e76e	0.004696778
18	0xbb870ec7	-0.0041216346
19	0x3c84fb7f	0.016233204
20	0x3c180e3d	0.009280738
21	0xbc3101f4	-0.010803688
22	0xbbfb5ed0	-0.0076712146
23	0x3c2e7a33	0.010649252
24	0x3b1dbd55	0.002406915
25	0x3c8f7eb3	0.01751647
26	0x3b8b3b63	0.004249023
27	0xbc8e64ad	-0.01738199
28	0x3a7127fb	0.0009199378
29	0x3c88f02f	0.016716091
30	0xbbbfdf13	-0.00585545
31	0x3b5efe1b	0.003402597
32	0x3bb50895	0.0055247047
33	0x3b4a5f2d	0.0030879483
34	0x3c04e997	0.008112333
35	0x3b229fb5	0.002481443
36	0xbbdef175	-0.0068036863
37	0x3ab23a82	0.0013597759
38	0xbabdb7e6	-0.0014474362
39	0x3bfcf669	0.007719804
40	0xbc3f04f2	-0.011658894
41	0xbc40cd90	-0.01176776
42	0x3ce1ec27	0.027578427
43	0xbb9e0f87	-0.0048236283
44	0xbc2e97f7	-0.010656348
45	0xbc29aab7	-0.010355643
46	0x3b1d753b	0.0024026174
47	0xbca0f650	-0.019648701
48	0xbc2a6d78	-0.010402076
49	0x3b98b8d2	0.004660704
50	0xbc374985	-0.011186962
51	0xbc79df43	-0.015250984
52	0xb9db6a20	-0.00041850004
53	0xbc6a6255	-0.014305671
54	0x3a9c58f7	0.0011928369
55	0x3b987bb4	0.0046534184
56	0x3c54bb99	0.01298418
57	0x3c3aded7	0.011405668
58	0xbc0067d3	-0.007837254
59	0x3b2ee63c	0.0026687523
60	0x3c92d7c9	0.01792516
61	0x3c86a0f6	0.016434174
62	0x3cb713fb	0.022348395
63	0x3a8829f5	0.0010388481
64	0xbbb8bf4b	-0.0056380383
65	0x3c55bcc1	0.013045491
66	0x3c77d4bb	0.0151264025
67	0x3b488122	0.0030594547
68	0x3c5773a9	0.013150134
69	0xbc023b39	-0.00794869
70	0xb8fe508b	-0.00012126666
71	0x3c8a1212	0.01685432
72	0x3bb592e5	0.005541193
73	0xbc629b7c	-0.013831016
74	0x3c370320	0.011170179
75	0xbba8668a	-0.0051391767
76	0xbbfed59c	-0.007776929
77	0xbbbd3c89	-0.0057750386
78	0x3c519f29	0.012794294
79	0xbac626d4	-0.0015117773
80	0xb9a7ab4a	-0.00031980342
81	0x3916bdd7	0.00014375836
82	0x3b9c7fcb	0.0047759763
83	0xb9b496e7	-0.00034444706

b2last f4 [3, 10]
0	0xbcb9fbe2	-0.022703115
1	0x3c154d89	0.009112724
2	0x3c0dc2e6	0.008652424
3	0xbbe6f5e5	-0.007048356
4	0xbbb5af79	-0.0055445996
5	0xbbfb52fc	-0.0076698046
6	0x3bb9cc21	0.005670086
7	0x3b02837b	0.0019914794
8	0x3c9cc89e	0.01913863
9	0xbb991cae	-0.0046726083
10	0xbc9c3874	-0.019069888
11	0xbb0be96f	-0.0021348854
12	0xbc22321b	-0.009899641
13	0x3a0faae1	0.000548048
14	0xbbf78c37	-0.0075545567
15	0xbadca53d	-0.0016833913
16	0xbb40165e	-0.0029310207
17	0xbc2d4a7b	-0.01057684
18	0x3c1c62ad	0.0095450105
19	0xbc1c28ec	-0.009531241
20	0xbaceffa5	-0.0015792741
21	0x3c110082	0.008850219
22	0x3bcf2072	0.0063210065
23	0x3b971bbb	0.00461146
24	0x3c67a87d	0.014139292
25	0xbb47d1a2	-0.003048994
26	0x3a78b398	0.0009487211
27	0xbb754a40	-0.003742829
28	0x3c6ba9e9	0.014383771
29	0xbb575057	-0.0032854283

d12last f4 [3, 10]
0	0xbc00005f	-0.0078125885
1	0x3b27b1a4	0.002558806
2	0x3b552793	0.0032524809
3	0xba15901f	-0.00057053746
4	0x3c934f9f	0.017982302
5	0x3a537754	0.00080667925
6	0xbb88f6d1	-0.0041798134
7	0x3c01e150	0.007927254
8	0xbc053f6f	-0.0081327995
9	0xbc751ca7	-0.0149604445
10	0xbbe64b6c	-0.007028034
11	0x3b8df98b	0.0043327264
12	0xbb88a2ff	-0.0041698213
13	0x3c054b14	0.008135576
14	0xbc3e9d3c	-0.011634167
15	0xbb8c75e6	-0.0042865155
16	0x3bd2232a	0.0064128833
17	0xbb278aca	-0.0025564902
18	0x3abfb2e5	0.0014625458
19	0xbb32c1e0	-0.0027276203
20	0xbc23afbf	-0.009990632
21	0x3c98512b	0.018593391
22	0x3c0a7f8c	0.008453261
23	0x3bce13a5	0.006288963
24	0x3b25b65b	0.0025285694
25	0xb94f10d2	-0.00019747324
26	0x39cb9f26	0.00038837752
27	0x3993b046	0.0002816936
28	0x3a8c12d2	0.0010686761
29	0x3b2cac19	0.0026347695

c2 f4 [28, 3]
0	0x3c13e4d4	0.009026725
1	0x3b0d4f0b	0.0021562006
2	0x3ba77a64	0.0051110256
3	0xbb37e984	-0.002806277
4	0x3c47f5c1	0.012204588
5	0xbc8fc49d	-0.017549807
6	0xbc0da952	-0.008646326
7	0xbc1b929b	-0.009495403
8	0xbcba7b90	-0.022763997
9	0x3c3c2b65	0.011484955
10	0xbc032f32	-0.008006858
11	0x3c3378a2	0.010954054
12	0x3b9f02ed	0.0048526437
13	0x3b7ef565	0.003890359
14	0xbb5710c1	-0.0032816383
15	0x38c38266	9.322613e-05
16	0xbc0c27a6	-0.008554375
17	0xbbc21502	-0.0059229145
18	0x3b80d45c	0.003931565
19	0x3b06fe6b	0.0020598422
20	0xbc621244	-0.0137983
21	0xbc07e4cd	-0.008294296
22	0xbc8ceb54	-0.017202057
23	0x3b713dd5	0.0036810536
24	0x3a9be787	0.0011894562
25	0xbb08b886	-0.0020861938
26	0xbc24b802	-0.0100536365
27	0x3ada5d9b	0.0016659977
28	0xbb3470ee	-0.0027533132
29	0x3c81fbfb	0.015867224
30	0x3c9e457e	0.019320246
31	0x3bee9b42	0.007281692
32	0x3ade41d3	0.0016956873
33	0xbb7fabfe	-0.0039012427
34	0xb9da35eb	-0.00041620372
35	0xbc021e2c	-0.007941764
36	0xbbff06de	-0.007782801
37	0x3b0e43a0	0.0021707788
38	0x3b99718a	0.0046827244
39	0xbb3867a0	-0.0028137937
40	0xbc411030	-0.011783645
41	0xbbfd540a	-0.0077309655
42	0xbc7d8ab5	-0.015474965
43	0x3c32d444	0.010914866
44	0x3cd78a00	0.02631092
45	0xbc86a3f2	-0.016435597
46	0xbb9060bd	-0.0044060634
47	0x3c924e1d	0.017859513
48	0x3c2ed081	0.010669828
49	0xbc85eb6b	-0.016347608
50	0x3cc0f23d	0.023553008
51	0xbca05604	-0.019572265
52	0xbaceb5dd	-0.0015770752
53	0x3c51341b	0.012768771
54	0x3a089422	0.0005210062
55	0x3a87fefb	0.0010375673
56	0xbc8b78af	-0.01702532
57	0xbb81330b	-0.0039428524
58	0xb9ffcad8	-0.0004878852
59	0x3a8a25b9	0.0010539807
60	0x3c9405c0	0.018069148
61	0x3c37858a	0.011201272
62	0x3c39e63b	0.011346395
63	0xba9cfc18	-0.0011976985
64	0xbb050c2c	-0.0020301444
65	0x3c0480df	0.008087366
66	0x3aeae993	0.0017922394
67	0xbbb7cc49	-0.0056090695
68	0xbb467404	-0.0030281553
69	0xb93efb82	-0.00018213506
70	0xbba00618	-0.004883539
71	0xba9d1e16	-0.0011987116
72	0x3c0f54a6	0.008748209
73	0x3be821f9	0.007084128
74	0x3c1de579	0.00963723
75	0x3a9a37db	0.0011765914
76	0xbbef016a	-0.0072938697
77	0x3a4e27b4	0.00078641926
78	0x3c036ef7	0.008022062
79	0x3c834fbd	0.016029233
80	0xbbb1feb7	-0.0054319757
81	0x3a6d26e5	0.0009046628
82	0x3b8fd312	0.004389175
83	0xbb5a6100	-0.0033321977

d21 f4 [28, 3]
0	0xbc81f07d	-0.015861744
1	0xbb8e07ba	-0.004334417
2	0xb86f1b6c	-5.700758e-05
3	0x3b834861	0.004006431
4	0xbc796865	-0.0152226435
5	0xbb77e513	-0.0037825748
6	0x3b5a6f6f	0.003333058
7	0xbcbb38f4	-0.022854306
8	0x3b9b3779	0.0047368375
9	0xbb1cec0e	-0.002394441
10	0x3ada3f8a	0.0016651016
11	0xbb439066	-0.0029840707
12	0x3c32e8e7	0.010919786
13	0xbb29b7eb	-0.0025896977
14	0xbbd74ce4	-0.0065704454
15	0xbaf10c61	-0.001839053
16	0x3b5dfbbd	0.0033871972
17	0x3cb81c98	0.022474572
18	0x3cd2b000	0.025718689
19	0xbc9a835b	-0.018861463
20	0xbc36f3c5	-0.011166518
21	0x3af5202e	0.0018701607
22	0xbc928606	-0.017886173
23	0x3c020254	0.007935125
24	0xbbb9ddc7	-0.00567219
25	0x3c6b2890	0.014352933
26	0xba6f3738	-0.00091253547
27	0xbb5f28ca	-0.0034051412
28	0xbb800097	-0.0039063203
29	0x3b3e73f7	0.002906082
30	0xb956ddf5	-0.00020491316
31	0xba5ef35e	-0.00085048925
32	0xbc34043d	-0.010987339
33	0x3ab9d741	0.001417853
34	0x3c6d2119	0.014473223
35	0x3c37d639	0.011220508
36	0xbb274827	-0.0025525184
37	0x3c4254e0	0.011861056
38	0xbbb77584	-0.0055987258
39	0xbbf3cc45	-0.0074401223
40	0x3c006516	0.007836601
41	0x3a81c09d	0.0009899322
42	0x3bbf0dd0	0.005830504
43	0x3bfa9502	0.0076471576
44	0x3bb0e1db	0.005398018
45	0x3b763278	0.0037566703
46	0xbb2574b4	-0.0025246562
47	0x3c498ec7	0.012302107
48	0x3bbb17c5	0.0057096207
49	0x3c68a579	0.014199608
50	0xbbb2867c	-0.0054481607
51	0xbbeb60c0	-0.0071831644
52	0xbb9292a4	-0.0044730473
53	0x3b9d02de	0.0047916016
54	0xbbdef50b	-0.0068041137
55	0x3b4f1821	0.0031600075
56	0xb833252d	-4.271155e-05
57	0x3af39993	0.0018585197
58	0x3bb64c66	0.0055633066
59	0x3c1d663f	0.009606897
60	0x3ca5d1ed	0.020241702
61	0x3c3280fd	0.010895011
62	0x3c13f259	0.009029948
63	0x3bc45b60	0.005992338
64	0x3b101fc0	0.002199158
65	0xb97cba00	-0.00024101883
66	0x3b8c40fd	0.004280208
67	0xbbbfde59	-0.0058553633
68	0xbba5a4e9	-0.005055059
69	0x3b58a58b	0.0033057656
70	0xbbe0ef22	-0.0068644444
71	0xbc06cc9d	-0.008227495
72	0xbbbbe7de	-0.005734428
73	0xbc274f79	-0.010211819
74	0xbc92172f	-0.01783332
75	0xbbdc97cf	-0.006731964
76	0x3c5a0fbc	0.013309415
77	0x3c158766	0.00912652
78	0x3c3cfa90	0.011534348
79	0xbc8732b6	-0.016503673
80	0x3bb31421	0.005465046
81	0x3c2ffe52	0.010741787
82	0xbc1d6abb	-0.009607966
83	0x3c46f246	0.012142723

c2last f4 [10, 3]
0	0x3b2108ef	0.0024571975
1	0x3a8e5ba1	0.0010861048
2	0xbb994285	-0.004677119
3	0x3c842efe	0.016135689
4	0xbc748ece	-0.014926625
5	0xbca1dbaf	-0.019758074
6	0xbc0eac53	-0.0087080775
7	0x3b898698	0.004196953
8	0xbb9e7e6e	-0.004836849
9	0xbba6ce92	-0.005090543
10	0x3bae2746	0.0053147404
11	0x39c351b3	0.0003725417
12	0xbba8c99e	-0.0051509878
13	0x3b8943fa	0.0041890116
14	0x3c5b4d74	0.0133851655
15	0xbc2024be	-0.009774385
16	0x3ba63ef3	0.005073422
17	0x3c17c1f4	0.009262551
18	0xbc58430a	-0.013199577
19	0xbc52027b	-0.012817974
20	0xbcb570cf	-0.022148518
21	0x3a8c8d4f	0.0010723266
22	0x3b4d6cd5	0.0031345387
23	0x3b4ccd09	0.003125014
24	0x3b54a329	0.0032445884
25	0xb9b3e945	-0.0003431534
26	0x3c747510	0.014920488
27	0x3c3b9555	0.011449178
28	0xbbbae75b	-0.0057038493
29	0xbb91d994	-0.004450986

d21last f4 [10, 3]
0	0x3bb1f4bc	0.005430786
1	0x3a25236e	0.000629953
2	0xbc63cbea	-0.013903597
3	0x3c48c1b2	0.012253212
4	0x3aacd878	0.0013187071
5	0xbc406d1b	-0.011744763
6	0xbb7dbf07	-0.0038718597
7	0x3c6a43a0	0.01429835
8	0xbbba3bb0	-0.005683385
9	0xbc004f06	-0.007831341
10	0x3b9757eb	0.004618635
11	0x3b02e95f	0.0019975526
12	0xbb93db96	-0.0045122607
13	0x3c07d3a4	0.008290205
14	0x3c633f38	0.013870053
15	0x3c1e30ae	0.009655161
16	0xbbdefe92	-0.0068052495
17	0xbbfeb1a6	-0.007772642
18	0x3b63d534	0.003476453
19	0xbc0a7c94	-0.008452553
20	0x3c273c24	0.01020721
21	0xbc100021	-0.008789093
22	0x3c286800	0.010278702
23	0xbbd23157	-0.006414573
24	0x3bbd36ee	0.0057743704
25	0x3b17e78d	0.0023178787
26	0xbb1dcd5f	-0.002407871
27	0xbb3b5fee	-0.0028591114
28	0x3c2034a2	0.009778174
29	0xbc6bc913	-0.014391202

bx f4 [3]
0	0x39f269fd	0.00046236804
1	0xbc1378da	-0.009000981
2	0x3bb54ef3	0.005533093

bv f4 [3]
0	0xb86c59d9	-5.635046e-05
1	0x3b01961a	0.0019773305
2	0xbcb9fa10	-0.022702247

bu f4 [7850]
0	0x3c610af8	0.013735525
1	0xbb6faaf2	-0.0036570397
2	0x3c562684	0.013070706
3	0x3bd7289b	0.00656612
4	0xbb5a43ca	-0.0033304566
5	0xbbc61100	-0.006044507
6	0xbc08de32	-0.008353757
7	0xbc47b247	-0.012188501
8	0x3c066d5c	0.008204784
9	0x3be8c541	0.0071035926
10	0xbb7d1b9b	-0.003862119
11	0xbc55ce89	-0.01304973
12	0x3a8b5444	0.0010629972
13	0x3a909830	0.0011031684
14	0xbbecf97e	-0.00723189
15	0x3bc42605	0.0059859776
16	0x3c08116b	0.008304934
17	0x3a785229	0.0009472692
18	0x3c48e68d	0.012261999
19	0x3b11bfb4	0.0022239508
20	0xbc883e21	-0.016631188
21	0xbb599ed3	-0.003320624
22	0xbc23d119	-0.009998583
23	0xbc18ae52	-0.009318905
24	0xbc467104	-0.012111906
25	0x3c460d95	0.012088199
26	0x3c8ead30	0.017416567
27	0x3bcf5242	0.0063269446
28	0x3c769879	0.015051001
29	0x3c090084	0.008361939
30	0xbc763017	-0.015026114
31	0xbc354919	-0.011064791
32	0xba376d73	-0.0006997205
33	0xbc587fc4	-0.013214055
34	0x3cc69386	0.024240267
35	0x3abc6baf	0.0014375354
36	0x3c2e9a6b	0.010656933
37	0x3b055592	0.0020345193
38	0xbc0cb8fd	-0.0085890265
39	0xbbdab870	-0.0066748187
40	0xbc7b5265	-0.015339469
41	0xbc9b32ce	-0.018945124
42	0xbbaf648a	-0.0053525614
43	0x3c485699	0.012227678
44	0x3ba7e6b9	0.00512394
45	0x3c45f587	0.012082464
46	0xbc12edad	-0.008967799
47	0x3bc58277	0.0060275155
48	0x3bae824b	0.0053255907
49	0x3c9b1d12	0.01893476
50	0x3a9e15f6	0.0012060988
51	0xbbc78f4a	-0.0060900794
52	0xbca8ecfe	-0.02062082
53	0xbc817bd4	-0.015806116
54	0xbbedfdab	-0.0072629056
55	0x3a695454	0.00089008105
56	0xbbdcea3d	-0.0067417906
57	0x3b58ce66	0.0033082007
58	0xbc2034b7	-0.009778193
59	0x3c968f3d	0.018378848
60	0x3ac954ea	0.0015360389
61	0xbc5c5b37	-0.013449482
62	0xbc394134	-0.01130705
63	0xbabbed67	-0.0014337719
64	0x3c56da42	0.01311356
65	0xbbf78eeb	-0.007554879
66	0xbb23d6d2	-0.002499987
67	0xbb5a5fd9	-0.003332129
68	0x3a80b8e0	0.0009820722
69	0xbc1aa389	-0.009438404
70	0x3c30bbe9	0.010786989
71	0xbc61370f	-0.013746037
72	0x3b7d4746	0.0038647219
73	0x3b53957b	0.0032285142
74	0xbb4ca02a	-0.0031223395
75	0x3ab23126	0.001359497
76	0x3c79153b	0.015202816
77	0xbbc8dce5	-0.0061298483
78	0xbceae9b8	-0.028675899
79	0xbb630a64	-0.0034643644
80	0xbb1991db	-0.0023432884
81	0xbc2feb29	-0.010737219
82	0xbc7bf6a9	-0.015378633
83	0xbba32254	-0.0049784575
84	0x3c64a7d8	0.013956033
85	0xbb8e4a02	-0.0043423185
86	0x3be1b9f7	0.006888624
87	0x3c33a1be	0.010963855
88	0xbc49fdbd	-0.012328562
89	0x3ca05d8b	0.019575855
90	0x3b0f67f7	0.0021882036
91	0xbbf4f5b8	-0.007475581
92	0x3c285104	0.010273222
93	0x3a45df8d	0.0007548265
94	0x3beccff0	0.0072269365
95	0x3b26d125	0.002545425
96	0xbba7a2cb	-0.005115842
97	0x3ae7a490	0.0017672945
98	0x3b73b06c	0.0037184013
99	0xbca3c469	-0.019991117
100	0x3b5b5ce0	0.0033472106
101	0x3c69389c	0.014234688
102	0x3bff64a2	0.007793979
103	0xbc62ecc6	-0.0138503965
104	0x3be42855	0.0069628158
105	0xbc283e5e	-0.010268776
106	0xbb791eb0	-0.0038012676
107	0x3c2d593c	0.010580357
108	0xbc1164cc	-0.0088741295
109	0xbbd75532	-0.0065714354
110	0x3b0f6ab2	0.0021883664
111	0xba0e904e	-0.0005438373
112	0x3c51ca60	0.012804598
113	0x3b5dcb86	0.0033843233
114	0xbb2762be	-0.0025541033
115	0xbca6c8bd	-0.020359391
116	0x3c73df23	0.014884743
117	0x3af11cf5	0.0018395471
118	0x3c4919c0	0.012274206
119	0xba89aba5	-0.0010503425
120	0x3c55efbd	0.013057646
121	0x3c383bfc	0.01124477
122	0xbbbb8fc6	-0.0057239262
123	0xbbed7ade	-0.007247313
124	0x3b0a7b37	0.002113057
125	0xbb5e7b8c	-0.0033948151
126	0xbca42b98	-0.020040318
127	0x3c0649b5	0.008196284
128	0xbba7438f	-0.005104489
129	0x3cbb2941	0.02284682
130	0x3c4c9990	0.012487784
131	0x3a8ee1b2	0.0010901003
132	0x3b96cabb	0.004601804
133	0x3b6aed1d	0.0035846897
134	0xbd079e4f	-0.03310996
135	0x3b16f9f2	0.0023037163
136	0xbc59e899	-0.0133000845
137	0xbc4677cb	-0.012113522
138	0xbc42f0e1	-0.01189825
139	0x3c15a1f9	0.009132856
140	0x3b239083	0.0024957962
141	0x3c90c73a	0.017673124
142	0x3b38a20e	0.0028172764
143	0xbcd6f8b3	-0.026241636
144	0x3b1ef9d9	0.0024257808
145	0xbbc0d3e1	-0.005884633
146	0xbb8727c6	-0.0041246144
147	0xbba6642a	-0.0050778585
148	0x3c32af32	0.010906028
149	0xbcaea1d2	-0.021317396
150	0xbb980c6f	-0.004640154
151	0xbc48848a	-0.012238631
152	0x3b189f4b	0.0023288305
153	0x3b8bddd7	0.0042683887
154	0xbca5fa04	-0.020260818
155	0x3c84cbdb	0.016210487
156	0x3c06a551	0.008218125
157	0xbbd18782	-0.0063943276
158	0xb980fed4	-0.00024603924
159	0xbbe31efd	-0.0069311843
160	0xbc745a2e	-0.014914079
161	0xbca7ca73	-0.020482277
162	0xbc2ff89d	-0.010740426
163	0xbb31c8b8	-0.0027127694
164	0xb9dde3fc	-0.00042322266
165	0xbc234dcb	-0.009967278
166	0x3c0a71fe	0.008450029
167	0xbb86728f	-0.004103012
168	0xbb83dcd7	-0.004024129
169	0x3c3ad13e	0.011402426
170	0xba8285b2	-0.0009958057
171	0x3aae4007	0.0013294228
172	0xbc1114ba	-0.008855039
173	0xbc2585d6	-0.01010271
174	0x3ada9957	0.0016677779
175	0x3c403209	0.011730679
176	0x3b80cdf9	0.003930804
177	0x3b5e2230	0.003389489
178	0x3c6f0342	0.014588179
179	0xbcb03cf0	-0.021513432
180	0xbb4be335	-0.0031110768
181	0xbbf9d482	-0.00762421
182	0xbbcd1f5b	-0.0062598414
183	0x3c512027	0.012764013
184	0x3b13379d	0.0022463568
185	0xbb8c2399	-0.0042767045
186	0xbb52f666	-0.0032190322
187	0xbae5ba5d	-0.0017526854
188	0x3b6f92d7	0.003655603
189	0xbbe2442f	-0.006905101
190	0x3c9b44c1	0.018953683
191	0xbc6b46a9	-0.014360108
192	0x3bc59e8f	0.0060308645
193	0x3c9de41d	0.019273812
194	0xbc3b9905	-0.011450057
195	0x3cb2c57c	0.021822684
196	0x3b06bdc0	0.0020559877
197	0x3cb6c36e	0.022309985
198	0x3ba64e8d	0.005075282
199	0xbb077972	-0.0020671752
200	0x3b570adb	0.0032812867
201	0xbc3757c9	-0.011190363
202	0x3c9a6971	0.018849107
203	0xbba530a9	-0.005041201
204	0x3b8d0faa	0.004304846
205	0x3c0462f2	0.008080231
206	0x3b0ba1e5	0.0021306213
207	0xbb158270	-0.0022813343
208	0x3c5ca705	0.013467555
209	0xbae1ebf8	-0.0017236462
210	0x3a46e252	0.0007586825
211	0x3c3f0657	0.011659226
212	0xbc04aef0	-0.008098349
213	0x3bee4caf	0.007272325
214	0x3acbab3e	0.0015538705
215	0x3b6aa8f5	0.0035806273
216	0xbc5980a6	-0.013275301
217	0x3b716eb5	0.0036839668
218	0xbb077d02	-0.0020673876
219	0xbcbc9bb0	-0.023023456
220	0xbca78959	-0.020451235
221	0x3b3b4daa	0.0028580227
222	0xbbaf2fa0	-0.0053462535
223	0xbca455bb	-0.02006041
224	0x3c1f3842	0.009718003
225	0xbc466a52	-0.01211031
226	0x3c57da1d	0.013174561
227	0x3c39c237	0.011337808
228	0x3b8e457c	0.0043417793
229	0x3bd23afe	0.006415724
230	0x3b60b8cf	0.0034289842
231	0x3c0f43e9	0.008744218
232	0x3bf8c38b	0.00759167
233	0xbc07aedf	-0.008281439
234	0xbc447bca	-0.011992404
235	0xbaf39692	-0.0018584302
236	0x3a193dc7	0.00058456924
237	0xba2ab17c	-0.00065114326
238	0x391d2c3e	0.00014989168
239	0xbc0f34ff	-0.008740663
240	0x3bb642d5	0.005562166
241	0x3c21dd1d	0.009879378
242	0x3c768a20	0.01504758
243	0xbc507e47	-0.012725419
244	0x3981751e	0.00024692056
245	0x3baa64bd	0.005199997
246	0x3b87a527	0.0041395607
247	0xbca4a3ea	-0.020097692
248	0xbc7b6115	-0.01534297
249	0x3b8cfaef	0.0043023746
250	0x3c332f12	0.010936515
251	0x3b296153	0.0025845363
252	0xbcabda61	-0.020978155
253	0xbc78a8cf	-0.015176966
254	0x3c82a9bd	0.015950078
255	0xbc1e33fd	-0.00965595

hidden1_0 f4 [1, 2]
0	0x3d91ab95	0.07112805
1	0xbcef90c5	-0.029243836

cell1_0 f4 [1, 2]
0	0xbd6107e5	-0.05493917
1	0x3bb82531	0.005619668

hidden2_0 f4 [1, 2]
0	0xbe476ee7	-0.194759
1	0x3f1c1e6e	0.6098393

cell2_0 f4 [1, 2]
0	0xbeaaa39d	-0.33327952
1	0x3f04263c	0.5162084

recurs.weight_ih f4 [8, 15701]
0	0x3f184063	0.59473246
1	0xbe4123ad	-0.18861265
2	0xbf219ef8	-0.6313319
3	0x3ee0d493	0.4391218
4	0x3d4f4498	0.050602525
5	0xbf1f0380	-0.62114716
6	0x3e080be8	0.13285792
7	0xbecef627	-0.40422174
8	0xbef8e0e2	-0.48609072
9	0x3e12e2cb	0.14344327
10	0xbed8f52a	-0.42374545
11	0xbf3da466	-0.7407898
12	0xbe84b08e	-0.2591595
13	0xbe0fe2dc	-0.14051384
14	0xbf276e86	-0.6540302
15	0x3e411df2	0.1885908
16	0xbf25e657	-0.64804596
17	0xbf404ed9	-0.7512031
18	0x3f0b2c90	0.5436487
19	0x3c4025ef	0.011727794
20	0x3f2290ac	0.63502
21	0xbe97f74a	-0.29680854
22	0xbdef6a14	-0.11690155
23	0x3f168fb5	0.5881303
24	0x3e22df04	0.15905386
25	0xbe33c88d	-0.17556973
26	0xbeecba37	-0.4623582
27	0xbc992c07	-0.018697752
28	0x3b8214a7	0.003969747
29	0x3e97fec9	0.29686573
30	0xbf11fc14	-0.57025266
31	0x3f00d363	0.5032255
32	0xbf38f3da	-0.7224709
33	0xbf3dd653	-0.7415516
34	0x3eaa9071	0.33313325
35	0xbf156035	-0.58349925
36	0xbf30a0ba	-0.6899525
37	0xbeb0c40e	-0.34524578
38	0xbf2d3cb3	-0.67670745
39	0xbebb20f8	-0.3654859
40	0xbdb253d0	-0.08707392
41	0xbea167cc	-0.31524503
42	0x3f21ccb0	0.63202953
43	0x3f185ca7	0.59516376
44	0xbcd5b3d2	-0.026086722
45	0xbec44245	-0.3833181
46	0x3e9234f0	0.28556013
47	0x3e987ebb	0.29784188
48	0xbf161d61	-0.5863858
49	0x3f022600	0.50839233
50	0x3f0c69c7	0.54848903
51	0xbec45b0e	-0.3835072
52	0xbd58bfb8	-0.052917212
53	0xbddf96c6	-0.109174296
54	0x3f19b8f4	0.6004784
55	0x3e9cfac9	0.30660084
56	0xbe405cf5	-0.1878546
57	0x3ebe7115	0.3719565
58	0x3e11ce82	0.14238933
59	0xbe98d286	-0.29848117
60	0x3e51afd3	0.20477228
61	0xbf199831	-0.5999785
62	0x3eabbf3b	0.33544335
63	0x3e0b7313	0.13618116
64	0x3e1345a9	0.14382042
65	0x3e9e8b65	0.30965725
66	0x3cd010a9	0.02539857
67	0xbf39be3a	-0.7255589
68	0xbf2eaf17	-0.68235916
69	0x3f22e6a9	0.6363321
70	0xbd8a796a	-0.06761439
71	0x3f160ac5	0.58610183
72	0x3ed413d0	0.41421366
73	0x3cf47ef3	0.02984569
74	0x3edc2176	0.4299428
75	0xbf2e0b47	-0.6798596
76	0xbf13d4d0	-0.577466
77	0x3df45cc0	0.11931753
78	0xbe1b7101	-0.15179826
79	0xbedaf2a1	-0.42763236
80	0x3f1365a8	0.5757699
81	0xbf25e264	-0.6479857
82	0x3ecb70d1	0.3973451
83	0x3eab8c3b	0.33505425
84	0x3de0610d	0.10956011
85	0xbedacc79	-0.42734125
86	0xbf2f2b63	-0.6842558
87	0x3f1fbb67	0.6239533
88	0x3eb8f48e	0.3612408
89	0x3f09d73e	0.5384406
90	0x3f0ecfd7	0.5578589
91	0xbd312bc7	-0.04325464
92	0xbe5afff3	-0.213867
93	0x3c949003	0.018135076
94	0xbf0472b3	-0.5173752
95	0xbf112978	-0.567039
96	0x3e04fc45	0.12986858
97	0x3ee9142c	0.45523202
98	0x3e5ba0f8	0.21448123
99	0x3f42eb0a	0.7613989
100	0x3f4159de	0.7552775
101	0x3efa68ac	0.48907983
102	0x3f21c844	0.63196206
103	0xbebd7455	-0.37002817
104	0xbf401cf7	-0.75044197
105	0x3efaa878	0.48956656
106	0xbe59870a	-0.2124292
107	0xbd0b6901	-0.034035686
108	0xbe902bd8	-0.2815845
109	0xbe7925a2	-0.24330762
110	0x3d4d4ddd	0.050123084
111	0xbd91b663	-0.07114866
112	0x3eb4e10f	0.35327956
113	0x3e9fca5d	0.31209078
114	0xbcf23e40	-0.029570699
115	0xbf2a7cde	-0.6659678
116	0xbe9cbd45	-0.3061315
117	0xbf2e8cb2	-0.68183434
118	0x3e1bd1ca	0.15216747
119	0xbf0f32d3	-0.55936927
120	0x3e42ebf9	0.19035329
121	0x3e981a0c	0.29707372
122	0x3ef228d6	0.4729678
123	0x3ef5b871	0.4799228
124	0x3f1014b4	0.5628159
125	0xbe1c21c9	-0.15247263
126	0xbf0d3b56	-0.55168664
127	0x3ea4f11d	0.32215205
128	0x3f153509	0.5828405
129	0x3ef4266d	0.47685567
130	0xbe43ab5b	-0.19108336
131	0x3e673bd2	0.22581413
132	0x3f00b794	0.5028012
133	0x3e72eb83	0.23722653
134	0x3f2eb57d	0.6824568
135	0xbec11472	-0.3771091
136	0xbf09cb8e	-0.53826225
137	0x3f0e0fcd	0.5549286
138	0x3f13be69	0.5771242
139	0x3de1da09	0.11027915
140	0xbeef8de1	-0.46787933
141	0xbd63f528	-0.05565372
142	0xbe0e7391	-0.13911273
143	0x3e340729	0.17580856
144	0xbf333dfa	-0.70016444
145	0xbe8bddbb	-0.27317604
146	0x3e9c1824	0.30487168
147	0x3f1bc177	0.6084208
148	0xbeea9576	-0.45817155
149	0xbf021378	-0.50810957
150	0xbc6f710a	-0.014614353
151	0x3eaf86d0	0.3428254
152	0x3e058a36	0.13041005
153	0x3f055a18	0.520906
154	0xbdb9beea	-0.09069617
155	0x3f01b7c2	0.5067102
156	0xbf179e34	-0.59225774
157	0x3dc5936d	0.0964726
158	0x3dbaac85	0.09114937
159	0xbce56fd5	-0.028007427
160	0xbeeee820	-0.46661472
161	0xbda22e2c	-0.07918963
162	0x3f3706b8	0.71494627
163	0x3e84e2b9	0.25954226
164	0x3e5f19fa	0.21787253
165	0x3f14d1cd	0.5813263
166	0xbe519996	-0.20468745
167	0x3d9eb57a	0.07749458
168	0x3d33e511	0.043919627
169	0x3df9e4cf	0.12201845
170	0xbc1278d0	-0.008939937
171	0xbf0e5d35	-0.5561097
172	0x3f0c387f	0.54773706
173	0xbe8419bf	-0.25800893
174	0x3f2b3264	0.66873765
175	0x3eb85876	0.3600499
176	0x3f0a0ad4	0.5392277
177	0xbf075c77	-0.52875465
178	0x3de49f81	0.111632355
179	0xbe58362f	-0.2111442
180	0x3e63e4ed	0.22255297
181	0x3ce73ee5	0.028228233
182	0x3e5a05c7	0.21291266
183	0xbebc97f0	-0.3683467
184	0x3f0f27f8	0.5592036
185	0x3ec8c55c	0.39213073
186	0x3ef88b1c	0.48543632
187	0x3e8087ea	0.25103694
188	0xbf21cb54	-0.6320088
189	0x3e86fac7	0.26363203
190	0xbeb53dbd	-0.35398665
191	0x3f00cfe6	0.5031723
192	0x3e8f6659	0.28007773
193	0xbe6b97f0	-0.23007178
194	0xbe8b6474	-0.27225077
195	0xbec616c8	-0.38689256
196	0xbea93714	-0.33049834
197	0x3e297780	0.16549492
198	0xbf172d2e	-0.59053314
199	0xbdb6aa6a	-0.08919223
200	0xbdc92fe8	-0.098235905
201	0x3ec73918	0.38910747
202	0x3f00a3c8	0.5024991
203	0xbf0779f1	-0.5292044
204	0x3f1ecb24	0.6202872
205	0xbf0bd22a	-0.5461756
206	0x3e899754	0.26873267
207	0x3e7d8f46	0.24761686
208	0xbe9ca3f8	-0.30593848
209	0x3e53a7da	0.20669499
210	0x3cd5b635	0.02608786
211	0xbe2a2dfa	-0.16619101
212	0x3e3de3c1	0.18543912
213	0x3e86e316	0.26345128
214	0x3ecfa51d	0.4055566
215	0xbe3ceaf9	-0.1844901
216	0x3eda80d5	0.42676416
217	0x3ec0ced0	0.37657785
218	0x3ebb6f0a	0.36608154
219	0x3ee73805	0.45159927
220	0x3d8cd7ac	0.06877074
221	0x3f06fa4b	0.52725667
222	0x3e096fd7	0.1342157
223	0xbf128a92	-0.5724269
224	0x3f0e08ea	0.5548235
225	0x3dc3600d	0.095398046
226	0xbf2ad3c1	-0.6672936
227	0xbf22509f	-0.6340427
228	0xbe9fee5a	-0.31236535
229	0x3efd755a	0.49503595
230	0x3e425952	0.18979385
231	0xbebf3cb2	-0.37350994
232	0x3ed40f21	0.41417792
233	0x3eb88224	0.3603679
234	0xbebbf270	-0.36708403
235	0xbf02b346	-0.510548
236	0x3eafdfe2	0.34350497
237	0x3f1cf48d	0.61310655
238	0x3eccd701	0.40007785
239	0xbdb782d4	-0.089605
240	0x3f43c73d	0.7647589
241	0xbe87177d	-0.26385108
242	0xbf18d957	-0.59706634
243	0x3e909f0b	0.2824634
244	0x3ecf75d3	0.4051958
245	0xbea45e0f	-0.3210301
246	0x3e9c7a51	0.3056207
247	0x3ebc95c2	0.36833006
248	0xbf08f848	-0.5350385
249	0xbf1d64ef	-0.6148214
250	0x3e98f2ff	0.2987289
251	0x3ebd4148	0.36963868
252	0xbe12c3bf	-0.14332484
253	0xbdfa8977	-0.122332506
254	0xbf4753d9	-0.77862316
255	0xbf12c263	-0.5732786

recurs.weight_hh f4 [8, 2]
0	0x3d446357	0.0479463
1	0xbf1bf98f	-0.6092767
2	0x3ef965a2	0.48710352
3	0xbebab176	-0.36463517
4	0x3e37c48c	0.1794607
5	0xbd8ada35	-0.06779901
6	0xbf2df72b	-0.67955273
7	0xbe27803d	-0.16357513
8	0xbf29f0e5	-0.663832
9	0xbe96ec0b	-0.29476961
10	0xbf182a49	-0.5943952
11	0xbf11a2bf	-0.56888956
12	0x3e3ce063	0.18444972
13	0x3dddceaa	0.10830434
14	0x3e8b9b32	0.27266842
15	0x3eb96039	0.36206225

recurs.bias_ih f4 [8]
0	0x3dd44715	0.1036512
1	0xbf36a03b	-0.7133824
2	0xbe55e310	-0.20887399
3	0x3e3c9b32	0.18418577
4	0x3d9ebe64	0.07751158
5	0x3eb67c81	0.35641864
6	0x3f126a02	0.57193005
7	0x3d277e12	0.040891714

recurs.bias_hh f4 [8]
0	0x3f2ae2a6	0.6675209
1	0xbec5f9f8	-0.38667274
2	0x3e59a21b	0.21253245
3	0xbd307319	-0.043078516
4	0xbf010c8c	-0.5040977
5	0xbe5c6f23	-0.2152677
6	0xbebbe8c0	-0.36701012
7	0x3d4bca28	0.049753338

recurs2.weight_ih f4 [8, 2]
0	0xbf38341a	-0.719545
1	0x3ec4d2c0	0.3844204
2	0xbf298f62	-0.6623441
3	0xbe5a8f9b	-0.21343844
4	0xbeabc998	-0.3355224
5	0xbe806ba1	-0.25082114
6	0xbecfa023	-0.40551862
7	0xbea786ae	-0.3271994
8	0x3eb0e149	0.3454688
9	0xbef5b196	-0.4798705
10	0xbeb87286	-0.36024874
11	0x3daf4112	0.08557333
12	0xbf1b0ad2	-0.60563385
13	0x3d9993ea	0.074989155
14	0xbf62f6c0	-0.8865776
15	0xbe641d8c	-0.22276896

recurs2.weight_hh f4 [8, 2]
0	0xbe6715d0	-0.22566915
1	0x3f322742	0.6959115
2	0x3eaaafff	0.333374
3	0x3e6ef1c7	0.23334418
4	0xbf0e6279	-0.5561901
5	0x3f52fb5a	0.8241478
6	0x3eaea38d	0.34109154
7	0x3e5607d1	0.20901419
8	0x3dcf0a5e	0.10109399
9	0xbf32f10e	-0.6989907
10	0xbe777806	-0.24166879
11	0x3f1b5ffd	0.6069334
12	0x3e09f69b	0.13472979
13	0xbea0f3db	-0.31436047
14	0xbe28f6c9	-0.16500391
15	0x3f847ffb	1.0351557

recurs2.bias_ih f4 [8]
0	0xbef8b747	-0.4857733
1	0x3e98c0c5	0.2983457
2	0x3f315055	0.692632
3	0x3d71f9b3	0.059076022
4	0xbdad9948	-0.08476502
5	0x3eb68e8d	0.35655633
6	0xbe5506a9	-0.20803322
7	0xbd323198	-0.043504328
